lab4/models/MNIST_model_without_class.pt (torch, 85478 bytes, 14 tensors)

weight f4 [32, 1, 3, 3]
-0.30411717 -0.23722029 0.22456239 0.094888754 0.1951138 -0.2551596 0.27494264 0.020312918
0.043081548 0.1418416 -0.33616757 0.04021915 -0.19085352 -0.15559858 -0.16391104 0.35251746
0.26432812 0.13937631 -0.28463358 -0.086268544 0.09865698 -0.016655905 -0.06879385 0.055714034
0.3138318 0.22314534 0.07532671 -0.057759672 0.20964138 0.17774194 -0.11714432 -0.32845742
0.23628536 0.29160768 0.14813003 0.07919059 0.10519281 -0.026026456 -0.12416154 0.051748358
0.101501964 -0.0762608 0.020562625 -0.13492668 -0.095964186 0.094526134 -0.10855699 -0.21130203
-0.08885573 0.3326252 -0.13526614 -0.018237183 0.06281118 0.07691225 0.34699762 0.20989275
-0.27340794 0.067521974 -0.014731682 0.12804407 0.16116174 0.25247875 0.03446486 0.09831728
0.070279166 -0.13808264 -0.12274609 0.2372865 -0.28665033 0.35486543 -0.054379825 -0.081026286
-0.1074979 0.02694461 0.046906237 0.26657698 0.25252056 -0.12729312 0.32737213 0.043810695
-0.25831056 -0.24289975 0.32967582 -0.14815906 0.10725864 0.2815014 -0.22568509 -0.2248355
-0.3504755 -0.20656456 0.16499388 -0.18369208 -0.27701616 -0.009045091 -0.3002508 0.1629547
-0.27061117 -0.025385814 -0.14861575 0.20489748 0.25956056 0.17924443 0.118421525 -0.13839865
0.13898097 -0.15185702 -0.16420074 -0.10647103 -0.10068124 0.05889959 -0.25535414 0.3356347
-0.27680135 0.10644721 0.0021689646 -0.14860618 -0.29675892 0.047669835 -0.10692941 0.23644131
-0.3078212 0.07068203 0.35433877 0.08363732 0.13050915 -0.09829694 0.028565682 -0.10271026
-0.15358202 -0.15244418 0.023485262 0.29168293 0.026790744 0.20120013 -0.2239201 0.04970126
0.094758704 0.27303222 0.0027370593 0.05663684 -0.25302345 0.051305946 0.18914409 0.0412679
-0.0553473 -0.258939 -0.106042214 -0.23873055 0.025551999 0.06780212 0.24571636 0.25481355
0.2499171 0.24486445 0.2169616 -0.15904921 -0.03026368 0.0643009 0.27459964 -0.35691005
-0.07141087 -0.04038834 -0.19706623 -0.20179576 -0.24789788 0.32940745 -0.24477425 -0.063094325
0.23307279 -0.20084603 -0.18367435 -0.1390799 0.3185715 -0.16062853 0.02166906 0.33410448
-0.13817869 -0.3606155 0.3800807 -0.22098736 0.032987878 0.14828973 -0.31122693 0.060294107
0.06433044 0.39736545 0.23932008 -0.2544716 -0.13007252 0.30041108 0.084635936 0.35134304
-0.03894201 -0.15392971 -0.1870199 -0.24798569 0.13930336 0.06996679 0.3433494 0.045379024
0.062252305 0.2936049 0.0665681 -0.08180697 0.033517692 0.049587745 0.015205448 -0.13025552
-0.21864842 0.32608712 0.10653124 -0.29599375 0.2927871 0.025498956 0.16049817 -0.05262795
0.00037738658 0.1706646 -0.02852766 -0.21941383 0.16587694 -0.19038624 0.087726176 0.123826735
0.19632916 -0.22524555 -0.18634556 0.21904989 -0.23958221 -0.22012007 0.03579832 -0.06447055
0.13007645 0.2282866 0.11374878 -0.04058535 0.23039767 -0.17848946 0.23908041 -0.046626065
-0.23187019 -0.2566967 -0.14756499 0.2870819 -0.24887043 -0.37378848 -0.10985219 0.33459422
-0.19890265 -0.28188017 0.039476328 -0.06895961 0.083438195 -0.14792682 -0.19194561 -0.01671714
00000000: 3fb5 9bbe e0e9 72be aff3 653e 0955 c23d
00000010: e9cb 473e 47a4 82be 48c5 8c3e 4767 a63c
00000020: 4776 303d ed3e 113e 281e acbe d6bc 243d
00000030: 1b6f 43be 3c55 1fbe 4cd8 27be 2b7d b43e
00000040: 0456 873e aab8 0e3e 7ebb 91be 90ad b0bd
00000050: ac0c ca3d f771 88bc cae3 8cbd 6634 643d
00000060: 90ae a03e 3680 643e e444 9a3d 6895 6cbd
00000070: 3bac 563e fc01 363e 5ce9 efbd 922b a8be
00000080: caf4 713e 9a4d 953e 66af 173e ad2e a23d
00000090: 546f d73d 6f35 d5bc 6848 febd 16f6 533d
000000a0: 43e0 cf3d 9f2e 9cbd f372 a83c 382a 0abe
000000b0: df88 c4bd eb96 c13d 2153 debd 8f5f 58be
000000c0: fef9 b5bd da4d aa3e 3583 0abe 2566 95bc
000000d0: 26a3 803d 2b84 9d3d aca9 b13e 20ee 563e
000000e0: 20fc 8bbe f648 8a3d 275d 71bc fc1d 033e
000000f0: 9507 253e e544 813e 062b 0d3d 925a c93d
00000100: 86ee 8f3d 8965 0dbe 4d62 fbbd 3bfb 723e
00000110: d5c3 92be ecb0 b53e 61bd 5ebd 1cf1 a5bd
00000120: dc27 dcbd f1ba dc3c c120 403d c77c 883e
00000130: 604a 813e 2159 02be 529d a73e d872 333d
00000140: 4841 84be b6ba 78be 45cb a83e 02b7 17be
00000150: 6baa db3d f420 903e fe19 67be 473b 66be
00000160: 8671 b3be a985 53be 28f4 283e c719 3cbe
00000170: 10d5 8dbe dd31 14bc 79ba 99be 99dd 263e
00000180: 8c8d 8abe e9f5 cfbc ba2e 18be a5d0 513e
00000190: 1fe5 843e da8b 373e fc86 f23d 60b8 0dbe
000001a0: 0751 0e3e 6880 1bbe 3d24 28be 7c0d dabd
000001b0: f731 cebd b240 713d c7bd 82be 50d8 ab3e
000001c0: e8b8 8dbe ff00 da3d 3025 0e3b 382c 18be
000001d0: c9f0 97be 7241 433d cefd dabd ac1d 723e
000001e0: be9a 9dbe bdc1 903d e46b b53e 0b4a ab3d
000001f0: 31a4 053e e84f c9bd 9402 ea3c c259 d2bd
00000200: 9b44 1dbe 541a 1cbe 2a64 c03c 7757 953e
00000210: 4378 db3c 6807 4e3e 504b 65be 8c93 4b3d
00000220: da10 c23d e1ca 8b3e 3c60 333b 08fc 673d
00000230: 4a8c 81be 2f26 523d fdae 413e 8808 293d
00000240: dab3 62bd a793 84be a92c d9bd c875 74be
00000250: 6d52 d13c d6db 8a3d 129d 7b3e ec76 823e
00000260: 45ea 7f3e bfbd 7a3e 2f2b 5e3e ccdd 22be
00000270: 89eb f7bc 31b0 833d 5398 8c3e eabc b6be
00000280: dd3f 92bd 3e6e 25bd bbcb 49be 8ca3 4ebe
00000290: f1d8 7dbe 18a8 a83e 1aa6 7abe 9937 81bd
000002a0: a2aa 6e3e 95aa 4dbe 2115 3cbe f66a 0ebe
000002b0: ce1b a33e ce7b 24be 5083 b13c be0f ab3e
000002c0: b77e 0dbe 98a2 b8be f099 c23e 834a 62be
000002d0: 4c1e 073d 43d9 173e 2359 9fbe f4f6 763d
000002e0: adbf 833d 7c73 cb3e 5310 753e 1a4a 82be
000002f0: bb31 05be 7bcf 993e 9b55 ad3d 3ce3 b33e
00000300: a881 1fbd c09f 1dbe 2582 3fbe f6ef 7dbe
00000310: 8aa5 0e3e c04a 8f3d 7ecb af3e 5bdf 393d
00000320: 46fc 7e3d 6253 963e db54 883d 6a8a a7bd
00000330: d949 093d 851c 4b3d 4520 793c b461 05be
00000340: 5fe5 5fbe e4f4 a63e 0d2d da3d 7e8c 97be
00000350: 31e8 953e 30e3 d03c a259 243e 6890 57bd
00000360: f8db c539 b3c2 2e3e d7b2 e9bc 05ae 60be
00000370: a5db 293e 9cf4 42be c8a9 b33d df98 fd3d
00000380: 830a 493e c5a6 66be 5fd1 3ebe 9d4e 603e
00000390: 0a55 75be 2867 61be 42a1 123d 2309 84bd
000003a0: c332 053e f6c3 693e 1ff5 e83d d33c 26bd
000003b0: 5eed 6b3e f1c5 36be 7fd1 743e f9fa 3ebd
000003c0: 616f 6dbe c06d 83be 471b 17be 66fc 923e
000003d0: e4d7 7ebe 3461 bfbe 2ffa e0bd ef4f ab3e
000003e0: 23ad 4bbe 9952 90be eeb1 213d b23a 8dbd
000003f0: a5e1 aa3d 217a 17be 648d 44be 62f2 88bc

bias f4 [32]
0.0896882 0.12215812 0.017364873 0.18621056 0.2839562 -0.23766945 0.17530766 -0.109156355
-0.2571254 -0.16431662 0.15550399 0.119653635 0.16562742 -0.10072566 0.25311455 -0.20632757
0.10592052 0.2657264 0.30155423 0.10464542 -0.11574255 -0.26225075 -0.11333203 -0.0704889
0.27166513 -0.18480536 0.35486346 0.22172977 0.29307234 -0.25244862 -0.28359714 -0.3248485
00000000: 72ae b73d 092e fa3d c740 8e3c fbad 3e3e
00000010: b562 913e 9f5f 73be da83 333e 5e8d dfbd
00000020: f1a5 83be 9e42 28be 703c 1f3e f70c f53d
00000030: 3c9a 293e 4149 cebd 3b98 813e 8947 53be
00000040: dcec d83d 4a0d 883e 5165 9a3e 5750 d63d
00000050: 6e0a edbd bb45 86be a01a e8bd 7c5c 90bd
00000060: b117 8b3e 9e3d 3dbe aab0 b53e 210d 633e
00000070: 940d 963e f240 81be a533 91be 8b52 a6be

weight f4 [32]
1.0016454 1.0562351 0.987771 0.95742196 0.9340427 1.0529088 0.9200681 1.0097002
0.91330326 1.0083865 1.1384492 1.0070436 0.9614209 0.9483271 1.0081425 0.957168
1.0013446 1.0429139 1.1275942 0.96251065 0.8726418 1.0456488 0.8654087 1.0217131
0.9282276 0.9883692 1.1780835 0.9373643 1.0493393 0.95941293 0.90482575 1.0312543
00000000: eb35 803f b632 873f 8fde 7c3f 9b19 753f
00000010: 6c1d 6f3f b7c5 863f 9589 6b3f db3d 813f
00000020: 3ece 693f cf12 813f b4b8 913f cee6 803f
00000030: ae1f 763f 91c5 723f d00a 813f f608 753f
00000040: 0f2c 803f 347e 853f 0255 903f 1967 763f
00000050: 7465 5f3f d2d7 853f 6d8b 5d3f 7fc7 823f
00000060: 53a0 6d3f c405 7d3f 71cb 963f 1bf7 6f3f
00000070: c050 863f 169c 753f a9a2 673f 2400 843f

bias f4 [32]
0.09358139 0.10418812 0.056835342 0.01692587 -0.086975425 0.11171544 -0.08106087 -0.014650155
-0.06731229 0.07119204 0.17594948 0.07398258 -0.043223716 0.11821116 -0.006984511 -0.026888503
0.011863533 -0.09843314 0.1127681 -0.03662218 -0.03948123 0.03772683 -0.019873107 0.07488363
-0.011945043 0.048503105 0.12292334 -0.035692085 0.16316888 0.02008988 -0.11046828 0.0057518953
00000000: 9aa7 bf3d 9560 d53d 2dcc 683d 1fa8 8a3c
00000010: 2c20 b2bd 11cb e43d 3e03 a6bd 3407 70bc
00000020: 07db 89bd 22cd 913d 1a2c 343e 2e84 973d
00000030: 5a0b 31bd b118 f23d 53de e4bb 4745 dcbc
00000040: 445f 423c 5097 c9bd f6f2 e63d 2401 16bd
00000050: 12b7 21bd 7387 1a3d edcc a2bc 975c 993d
00000060: 24b5 43bc 31ab 463d 3bbf fb3d dd31 12bd
00000070: be15 273e 8893 a43c 323d e2bd 657a bc3b

running_mean f4 [32]
0.30675748 0.37971038 0.36663654 0.629514 0.33129478 -0.11838491 0.7777504 0.10158776
0.18626761 -0.17661613 0.079532064 0.46335942 0.16446923 0.26393926 0.34118268 0.13495904
0.4406811 0.5111268 0.2891545 0.2989983 0.1429183 0.037652615 0.42980218 0.19691205
0.5194539 -0.027290614 0.42878884 0.2159033 0.5535699 0.058914483 -0.14717162 -0.0738097
00000000: 510f 9d3e 6669 c23e c9b7 bb3e d427 213f
00000010: 789f a93e ca73 f2bd a61a 473f 3e0d d03d
00000020: f0bc 3e3e dcda 34be b5e1 a23d 723d ed3e
00000030: 9f6a 283e 0c23 873e 7faf ae3e b432 0a3e
00000040: f4a0 e13e 35d9 023f 0f0c 943e 4e16 993e
00000050: 2d59 123e a139 1a3d 080f dc3e 50a3 493e
00000060: eefa 043f 9190 dfbc 368a db3e c115 5d3e
00000070: c2b6 0d3f 5050 713d 28b4 16be 8a29 97bd

running_var f4 [32]
0.09474812 0.14419241 0.20994756 0.25945735 0.01574487 0.035090912 0.5149781 0.10606457
0.3466123 0.042901024 0.06432312 0.22236407 0.044724986 0.22503342 0.021935577 0.16075735
0.23322968 0.12536089 0.08557667 0.092080735 0.106441654 0.1514005 0.44643673 0.12954074
0.093175605 0.098931715 0.047794305 0.04045956 0.17486641 0.17186935 0.030027617 0.114429146
00000000: 4d0b c23d 2da7 133e 7efc 563e 98d7 843e
00000010: 63fb 803c 7dbb 0f3d 9bd5 033f 6238 d93d
00000020: 2b77 b13e fcb8 2f3d d7bb 833d 68b3 633e
00000030: 8c31 373d 296f 663e 3db2 b33c 939d 243e
00000040: c3d3 6e3e 9b5e 003e d242 af3d d394 bc3d
00000050: 15fe d93d bc08 1b3e 5b93 e43e 54a6 043e
00000060: dad2 be3d b69c ca3d f6c3 433d ecb8 253d
00000070: 2e10 333e 85fe 2f3e 7afc f53c d459 ea3d

weight f4 [32, 32, 3, 3]
-0.050845716 0.024027146 0.03376201 -0.043283526 -0.010817975 0.0071036653 -0.034803934 0.009911722
0.0005014369 -0.017550364 -0.0067572454 0.058064602 -0.068273835 -0.0317866 0.050985932 -0.019324765
0.077496335 0.06256042 0.037107684 0.022635104 -0.019210413 0.016133374 -0.11008699 -0.014579845
-0.0011421728 -0.051367503 0.10728075 -0.018470744 0.0075138123 -0.052703485 0.039307363 -0.0805411
-0.030191282 -0.022516 -0.050410807 0.09304461 -0.01279563 -0.033604257 0.01565513 -0.01416881
-0.051653136 -0.061212145 0.015599406 -0.08721279 -0.043209985 0.001082583 -0.011930756 -0.021883707
-0.06573676 0.03637194 0.0006101574 -0.041904796 0.09461496 -0.03591354 -0.019307531 -0.00324413
0.0045319004 0.07068888 0.06607623 -0.03556282 -0.0077675697 0.13596968 -0.031092107 -0.03837145
0.01617115 0.046241198 -0.003335738 0.023449637 0.0057592746 -0.021107545 -0.046789117 -0.05321686
-0.0022420462 0.052730586 -0.014882518 0.05756256 0.06998232 0.012060327 -0.0029423235 -0.04034955
-0.047718406 -0.037522152 0.050758827 -0.016838707 -0.06664419 0.032803822 0.0126748625 -0.11618193
-0.025063917 0.0032822383 -0.05915592 0.017564503 0.0027953798 -0.10005364 -0.066933475 -0.0768969
-0.14068614 -0.090492286 -0.123706 -0.054737844 0.03507572 0.018304024 -0.1091269 0.005490391
-0.011980831 0.0076954206 -0.007255786 0.024350323 -0.04344026 -0.00032928566 -0.009625784 -0.023057543
-0.025649896 -0.013077109 0.024176562 -0.097185664 -0.07535434 0.03239372 0.07951778 -0.017259842
0.032150827 0.056693338 0.07124942 0.06963256 -0.014899354 -0.010042694 -0.035545878 0.103420235
0.013471992 0.041955452 0.0587838 -0.005014902 -0.07639373 -0.030494228 -0.029773878 0.011471412
0.060708128 -0.023383543 -0.0011277143 0.08551805 0.0614687 0.03582257 0.003391927 -0.01212355
-0.020280547 -0.062652566 -0.02328346 -0.07348755 -0.021059787 -0.051460523 -0.0061677136 -0.012523327
0.071031295 0.026324766 0.00856457 -0.01213709 -0.042489294 0.031241158 -0.010501557 0.037374135
0.1641132 0.040273827 0.0034911241 -0.05168672 -0.06436253 -0.039882638 0.028174425 -0.025748579
-0.00520199 -0.075415194 -0.14844887 0.024594177 0.059937444 0.04557251 0.021350648 0.09268155
0.028360864 0.013476219 0.04447292 0.0051720343 -0.018601557 -0.019094283 0.03211126 -0.037833776
-0.042573377 -0.018602237 0.004926805 0.018545061 -0.07084973 -0.026297322 -0.024622606 0.04507782
0.018660305 0.013817564 0.012056721 0.022597993 -0.053588357 0.016198836 0.00526181 0.054838892
0.024485352 -0.030419199 0.05541617 -0.026114251 0.045473143 -0.0012834228 -0.005005218 0.051582195
0.052829362 0.06433843 0.040105306 0.015164654 0.0946984 0.08332655 0.043644533 0.11050515
0.048257302 0.015906291 -0.007050345 -0.011229935 0.029614061 -0.018494805 0.044816792 0.072098926
0.0051422655 -0.018241823 0.020576458 0.02253844 0.041009564 -0.0498961 0.0120236995 -0.009219913
-0.04793689 0.011190252 -0.04736244 -0.07533286 -0.06294242 -0.044503827 -0.16930735 -0.047596436
0.033449106 -0.056361537 0.013888361 0.04032649 -0.014422253 -0.013420892 -0.012069042 0.058792017
0.014281259 -0.00031139707 0.022740146 0.026373653 -0.058024544 -0.06264755 -0.00090930844 -0.09420576
00000000: 9943 50bd 94d4 c43c 094a 0a3d 114a 31bd
00000010: e03d 31bc ddc5 e83b 928e 0ebd c664 223c
00000020: dc72 033a c8c5 8fbc e26b ddbb 26d5 6d3d
00000030: 27d3 8bbd aa32 02bd a0d6 503d f84e 9ebc
00000040: 66b6 9e3d ad1f 803d 3afe 173d 416d b93c
00000050: 285f 9dbc 232a 843c 4a75 e1bd 4de0 6ebc
00000060: f6b4 95ba bb66 52bd 03b6 db3d f54f 97bc
00000070: 6d36 f63b 9cdf 57bd c200 213d bbf2 a4bd
00000080: b553 f7bc 7973 b8bc 907b 4ebd 2c8e be3d
00000090: c3a4 51bc 9ea4 09bd 303f 803c 4c24 68bc
000000a0: 3d92 53bd 96b9 7abd a794 7f3c 9f9c b2bd
000000b0: f4fc 30bd 75e5 8d3a 3879 43bc 7645 b3bc
000000c0: ffa0 86bd befa 143d f8f2 1f3a 5da4 2bbd
000000d0: 7dc5 c13d 131a 13bd d42a 9ebc 789b 54bb
000000e0: 5680 943b 55c5 903d f952 873d 52aa 11bd
000000f0: 1987 febb a33b 0b3e e0b4 febc 622b 1dbd
00000100: 5c79 843c 6967 3d3d 669c 5abb 7419 c03c
00000110: 4cb8 bc3b bbe9 acbc f2a5 3fbd ecf9 59bd
00000120: 4bef 12bb 07fc 573d ced5 73bc b8c6 6b3d
00000130: e452 8f3d ae98 453c ffd3 40bb 9245 25bd
00000140: 6074 43bd d4b0 19bd 7de8 4f3d 54f1 89bc
00000150: c07c 88bd 4d5d 063d 3aaa 4f3c cbf0 edbd
00000160: d852 cdbc d21a 573b 7a4d 72bd 6fe3 8f3c
00000170: b132 373b ece8 ccbd 6b14 89bd 1f7c 9dbd
00000180: 0710 10be 0554 b9bd 9259 fdbd ca34 60bd
00000190: 8fab 0f3d 52f2 953c ed7d dfbd bde8 b33b
000001a0: 3f4b 44bc de29 fc3b f2c1 edbb 547a c73c
000001b0: 6aee 31bd f9a3 acb9 77b5 1dbc 2ce3 bcbc
000001c0: bb1f d2bc 5f41 56bc ed0d c63c 4709 c7bd
000001d0: 6053 9abd 47af 043d 38da a23d 8364 8dbc
000001e0: 96b0 033d 4637 683d 37eb 913d 849b 8e3d
000001f0: 6c1c 74bc 1d8a 24bc 8e98 11bd fdcd d33d
00000200: a1b9 5c3c 7bd9 2b3d 48c7 703d 0c54 a4bb
00000210: 5174 9cbd 08cf f9bc 59e8 f3bc 97f2 3b3c
00000220: 16a9 783d d88e bfbc d0cf 93ba 1624 af3d
00000230: 9bc6 7b3d b0ba 123d 184b 5e3b dba1 46bc
00000240: 6423 a6bc fd4f 80bd f4bc bebc a480 96bd
00000250: 9385 acbc 45c8 52bd 881a cabb a42e 4dbc
00000260: db78 913d 09a7 d73c 6952 0c3c a5da 46bc
00000270: 4109 2ebd 75ed ff3c b90e 2cbc 9f15 193d
00000280: 4a0d 283e 2bf6 243d 58cb 643b 74b5 53bd
00000290: 81d0 83bd fa5b 23bd 0dce e63c afee d2bc
000002a0: 7475 aabb 4873 9abd fb02 18be ba79 c93c
000002b0: f780 753d 3eaa 3a3d 8ee7 ae3c d3cf bd3d
000002c0: 0b55 e83c 5ccb 5c3c 3d29 363d 2b7a a93b
000002d0: 4b62 98bc 9d6b 9cbc 1987 033d 97f7 1abd
000002e0: 6c61 2ebd b863 98bc 0971 a13b d0eb 973c
000002f0: aa19 91bd 7b6d d7bc 59b5 c9bc 85a3 383d
00000300: 7fdd 983c 1063 623c 8e89 453c 6d1f b93c
00000310: 777f 5bbd 6cb3 843c 436b ac3b bf9e 603d
00000320: 8195 c83c af31 f9bc 11fc 623d 8eed d5bc
00000330: 0c42 3a3d 8638 a8ba d002 a4bb da47 533d
00000340: 9a63 583d dec3 833d 7645 243d 2b75 783c
00000350: 3cf1 c13d 1ca7 aa3d 9cc4 323d 8650 e23d
00000360: 73a9 453d e94d 823c 9506 e7bb c3fd 37bc
00000370: 3099 f23c 6b82 97bc d091 373d 9aa8 933d
00000380: 7380 a83b e06f 95bc f68f a83c 89a2 b83c
00000390: a5f9 273d da5f 4cbd 0dff 443c 1e0f 17bc
000003a0: 7959 44bd 5257 373c 1eff 41bd 1d48 9abd
000003b0: f5e7 80bd a549 36bd e85e 2dbe 7bf4 42bd
000003c0: ee01 093d 5bdb 66bd 028c 633c 642d 253d
000003d0: 504b 6cbc 4de3 5bbc 3bbd 45bc e6cf 703d
000003e0: f1fb 693c 0243 a3b9 8b49 ba3c 8f0d d83c
000003f0: 25ab 6dbd 5c4d 80bd a85e 6eba f3ee c0bd

bias f4 [32]
0.009230094 0.030580068 0.035030816 -0.025847258 0.027333362 0.03441836 -0.0056611523 -0.0360762
-0.005769285 0.049868584 -0.040710352 0.004525871 -0.037185304 -0.018198367 0.04560689 0.008771154
-0.04988793 0.05447467 0.053203467 -0.028812954 0.02476757 0.043869235 0.012161997 -0.07636687
0.013807162 -0.009007448 0.0079078805 0.025738634 -0.04645703 -0.0044048075 -0.029818406 0.008456045
00000000: d239 173c 0d83 fa3c 797c 0f3d a1bd d3bc
00000010: 37ea df3c 44fa 0c3d 3081 b9bb a3c4 13bd
00000020: 450c bdbb 0043 4c3d e6bf 26bd c24d 943b
00000030: 9e4f 18bd be14 95bc 4ace 3a3d e3b4 0f3c
00000040: 4957 4cbd d520 5f3d e1eb 593d 2509 ecbc
00000050: 5ce5 ca3c 3ab0 333d 1d43 473c 3c66 9cbd
00000060: 6f37 623c fa93 13bc 0e90 013c d4d9 d23c
00000070: ba49 3ebd 3456 90bb bb45 f4bc 398b 0a3c

weight f4 [32]
1.0848765 1.0293349 1.1310221 1.0884608 1.1310445 1.0136868 1.1441354 1.0442709
1.0420456 0.97758234 1.0610138 1.1154836 1.1067569 1.0335507 1.0531485 1.0128561
1.0308747 1.09637 0.99624854 1.0554801 0.9857824 1.0367622 1.1198688 1.0592091
1.0588291 1.0425512 1.1554334 1.0198839 1.1941102 1.0403835 1.1993284 1.1227436
00000000: 3cdd 8a3f 3fc1 833f 55c5 903f af52 8b3f
00000010: 11c6 903f 7dc0 813f 0773 923f abaa 853f
00000020: c061 853f d642 7a3f 4dcf 873f 2bc8 8e3f
00000030: 36aa 8d3f 644b 843f 92cd 863f 45a5 813f
00000040: b4f3 833f da55 8c3f 250a 7f3f f919 873f
00000050: 3c5c 7c3f a0b4 843f dc57 8f3f 2a94 873f
00000060: b687 873f 5172 853f 3ee5 933f 8e8b 823f
00000070: 9ad8 983f 492b 853f 9883 993f 10b6 8f3f

bias f4 [32]
0.13302755 0.011177011 -0.015336123 0.13945502 0.17132959 0.1417731 0.12395134 0.00018625005
0.042297047 0.006329851 0.14606121 0.1177389 0.053488918 0.09092848 0.050178785 0.08107143
0.061024267 0.1828166 -0.01792666 0.054886483 0.026402898 0.15975365 0.1379615 0.108398296
0.02350604 -0.0076444573 0.16166848 0.077448174 0.22588706 0.113153 0.12229106 0.20395353
00000000: 6038 083e c81f 373c 5d44 7bbc 4ccd 0e3e
00000010: 0671 2f3e f82c 113e 33da fd3d 1e4c 4339
00000020: ab3f 2d3d a46a cf3b 1291 153e 1821 f13d
00000030: 3217 5b3d b638 ba3d 4588 4d3d c708 a63d
00000040: 95f4 793d 4634 3b3e eeda 92bc a6d0 603d
00000050: e44a d83c 7696 233e c845 0d3e edff dd3d
00000060: bd8f c03c 5b7e fabb 6c8c 253e 269d 9e3d
00000070: f04e 673e c3bc e73d bc73 fa3d 32d9 503e

running_mean f4 [32]
1.5710796 2.027812 -0.6235245 2.645697 1.5889106 2.6686532 -1.6168622 0.07683456
1.7916827 1.2440865 3.3722863 1.171486 0.48742056 2.7898672 0.16483195 2.4515512
2.4414818 3.4569237 0.36345038 0.90599483 1.0588424 2.0390165 0.20655882 0.47541675
0.023338798 0.20469305 1.6852174 1.888689 2.998283 1.137678 1.083696 2.7463984
00000000: 2319 c93f acc7 0140 4d9f 1fbf 1a53 2940
00000010: 6c61 cb3f 37cb 2a40 57f5 cebf 705b 9d3d
00000020: dc55 e53f 3a3e 9f3f 8ad3 5740 41f3 953f
00000030: 308f f93e 2f8d 3240 b5c9 283e 37e6 1c40
00000040: 3d41 1c40 3d3e 5d40 2b16 ba3e 47ef 673f
00000050: 2688 873f 3f7f 0240 2884 533e d369 f33e
00000060: 0231 bf3c 0e9b 513e 34b5 d73f 90c0 f13f
00000070: dee3 3f40 6f9f 913f 8db6 8a3f fec4 2f40

running_var f4 [32]
1.5767925 1.603628 1.7899336 2.9514759 2.629732 1.4783621 2.0132482 0.71076244
1.2061268 1.5184907 3.116262 1.6882923 1.955091 2.3857737 1.5739653 1.9080068
2.242302 2.006503 2.1137626 1.94844 0.84453535 1.5463611 1.5538123 1.0202473
1.3157015 1.4947536 1.1736159 2.2338667 2.5927484 1.1969033 1.9786863 2.4980195
00000000: 56d4 c93f af43 cd3f 8b1c e53f fbe4 3c40
00000010: 874d 2840 f83a bd3f 0fd9 0040 87f4 353f
00000020: 5d62 9a3f e75d c23f d670 4740 f619 d83f
00000030: 6c40 fa3f 84b0 1840 b277 c93f 9139 f43f
00000040: e081 0f40 8c6a 0040 e347 0740 7b66 f93f
00000050: 7833 583f 29ef c53f 52e3 c63f 7797 823f
00000060: e868 a83f 1654 bf3f 0c39 963f acf7 0e40
00000070: 97ef 2540 2134 993f 9845 fd3f 8ddf 1f40

weight f4 [32, 32, 3, 3]
0.040720236 0.029616198 -0.052950956 0.06963173 -0.00012915829 0.069372505 0.022347745 -0.07966353
-0.012920719 -0.014493364 0.07048321 0.033531133 0.004026723 0.0021868087 0.025811018 -0.005008618
-0.115515724 -0.082354896 -0.031194171 0.07355805 -0.008664589 -0.014418042 0.048452552 0.10672534
-0.1379124 0.044268962 0.07095852 0.028937623 0.07005624 0.09444894 0.086140186 0.09421628
0.002867115 0.023985103 -0.0033770767 -0.13650835 -0.0700192 0.040771414 0.07502686 -0.12208533
-0.07853356 0.018318258 0.045806598 -0.030236091 -0.023527727 0.037432965 0.033666823 -0.012603821
0.08379699 0.010233662 -0.09684045 0.013585822 -0.018912138 -0.06906536 -0.05581331 -0.0045404476
-0.023351386 0.040789653 -0.0032641902 0.088634446 0.021683836 0.025412736 0.12744553 0.07169396
-0.052744795 -0.022835992 -0.022714859 -0.018086703 0.015284652 -0.08135414 0.008706013 0.016472267
0.0036796906 -0.06101 0.0111827105 -0.075544454 -0.019538336 -0.046239667 0.01616535 -0.062188253
-4.4925095e-05 -0.07157687 -0.0077707605 -0.009778322 -0.046104036 -0.013422206 -0.011488783 0.008322356
0.042847272 -0.079379156 -0.04066989 -0.016292008 -0.007334165 0.08970835 -0.0012498029 -0.08429599
0.03268352 0.049476504 -0.039756425 -0.13909417 -0.044553712 -0.01079794 -0.018214248 -0.03342874
0.03483498 0.06355194 -0.04104182 -0.059952006 -0.09706731 -0.018533535 -0.06088182 0.02786799
0.07444757 0.08659004 -0.024408551 0.08391045 0.024588078 0.057748668 0.045269337 0.029607754
0.09500997 -0.017362865 -0.022756714 0.010693354 0.0040017907 -0.08655503 -0.059272222 -0.015322729
0.0750336 -0.04814414 -0.043950103 -0.046991013 0.07355415 0.11029632 0.076045 -0.016685335
-0.025167082 -0.023278179 -0.05933334 -0.03253555 0.00368582 -0.041650496 -0.072846755 -0.019216452
-0.03862369 0.036831357 -0.05230731 0.034472298 0.044202175 0.014899992 -0.020896625 -0.009636022
0.007930621 0.04467639 -0.017811514 -0.01856916 -0.077143736 -0.07799328 -0.13686961 -0.006890968
0.085499905 0.059825324 -0.0680772 -0.08939948 -0.06275851 -0.045617323 -0.051753413 -0.035884816
-0.012915282 -0.0072509944 0.016541451 -0.10836213 -0.0029780837 0.034483157 -0.016418638 0.024496416
0.014405917 0.05018187 0.014244603 -0.0504916 0.015468952 0.0061858874 -0.021244096 0.06687741
-0.0032430247 -0.06706732 -0.013254359 -0.0015815303 -0.0503396 -0.08880304 -0.076814696 -0.026820917
-0.0045953067 0.058000177 -0.094166614 0.053570267 0.15741463 -0.019885948 -0.01834759 -0.077555776
-0.0073262313 0.029368347 -0.06428128 -0.06476798 0.076549925 0.10370803 -0.00376002 -0.11321355
-0.0025044316 0.010367711 -0.0100233685 0.028832817 0.055537984 0.009079849 0.047896236 0.0007915533
-0.046343118 0.076507196 0.05533128 -0.0786644 0.014027726 0.045429576 -0.03343736 -0.024526099
-0.025666771 0.007971435 0.07003408 0.09996565 -0.04668593 0.008963671 0.09699907 -0.043506596
0.04635736 0.043827165 -0.024048109 -0.010441674 -0.0006476061 -0.021704376 0.0009860034 -0.04825797
-0.01880486 -0.012875492 -0.02218498 -0.025498098 -0.00550727 -0.067657396 -0.10193044 -0.0064861523
0.0183182 0.084916696 -0.03458908 -0.05809045 0.046613667 -0.017728213 -0.096392855 -0.031866368
00000000: 43ca 263d ab9d f23c 1ae3 58bd 159b 8e3d
00000010: aa6e 07b9 2c13 8e3d 9e12 b73c a226 a3bd
00000020: 6cb1 53bc 9375 6dbc 8059 903d f157 093d
00000030: 9af2 833b 9050 0f3b a171 d33c 551f a4bb
00000040: 8293 ecbd afa9 a8bd eb8a ffbc 9aa5 963d
00000050: ecf5 0dbc a739 6cbc 2f76 463d d192 da3d
00000060: e838 0dbe 5f53 353d b352 913d 980e ed3c
00000070: a579 8f3d 726e c13d 446a b03d 77f4 c03d
00000080: 35e6 3b3b 687c c43c f251 5dbb d8c8 0bbe
00000090: 3a66 8fbd edff 263d afa7 993d e007 fabd
000000a0: 34d6 a0bd 2c10 963c b39f 3b3d aeb1 f7bc
000000b0: 38bd c0bc 4f53 193d 39e6 093d 4280 4ebc
000000c0: c29d ab3d 17ab 273c 4954 c6bd 1197 5e3c
000000d0: a1ed 9abc 2472 8dbd 7f9c 64bd 09c8 94bb
000000e0: 684b bfbc 0d13 273d 06ec 55bb fa85 b53d
000000f0: 4da2 b13c 5f2e d03c 1581 023e 48d4 923d
00000100: ed0a 58bd 8c12 bbbc 8314 babc 912a 94bc
00000110: 7a6c 7a3c 009d a6bd aaa3 0e3c d9f0 863c
00000120: f726 713b 9fe5 79bd b037 373c 0db7 9abd
00000130: dc0e a0bc ce65 3dbd 326d 843c 1cb9 7ebd
00000140: f46d 3cb8 e596 92bd dda1 febb 4135 20bc
00000150: 96d7 3cbd d0e8 5bbc 733b 3cbc 7e5a 083c
00000160: 9f80 2f3d 8a91 a2bd 7895 26bd d176 85bc
00000170: 6f53 f0bb 03b9 b73d 6dd0 a3ba 60a3 acbd
00000180: 28df 053d e0a7 4a3d a2d7 22bd b46e 0ebe
00000190: f47d 36bd d8e9 30bc 0c36 95bc 93ec 08bd
000001a0: 20af 0e3d 8527 823d 781b 28bd 3c90 75bd
000001b0: 3acb c6bd a4d3 97bc 375f 79bd 694b e43c
000001c0: f877 983d 1e56 b13d 71f4 c7bc 3ed9 ab3d
000001d0: f06c c93c de89 6c3d 576c 393d f68b f23c
000001e0: 9694 c23d 913c 8ebc 4a6c babc 2d33 2f3c
000001f0: 7421 833b c343 b1bd 6ec7 72bd 2f0c 7bbc
00000200: 37ab 993d ca32 45bd 0605 34bd a679 40bd
00000210: 8fa3 963d 09e3 e13d 7bbd 9b3d afaf 88bc
00000220: 322b cebc e1b1 bebc 8407 73bd ff43 05bd
00000230: cc8d 713b b699 2abd ae30 95bd d26b 9dbc
00000240: e033 1ebd 7adc 163d 3140 56bd d332 0d3d
00000250: 570d 353d 191f 743c 662f abbc 68e0 1dbc
00000260: 6fef 013c 97fe 363d 74e9 91bc 5a1e 98bc
00000270: 89fd 9dbd f1ba 9fbd 8c27 0cbe a1cd e1bb
00000280: 931a af3d 660b 753d 0f6c 8bbd 1317 b7bd
00000290: 8987 80bd 3bd9 3abd 63fb 53bd f5fb 12bd
000002a0: 9e9a 53bc c099 edbb f081 873c f7ec ddbd
000002b0: f42b 43bb 363e 0d3d 6180 86bc b5ac c83c
000002c0: cc06 6c3c 818b 4d3d 3262 693c 48d0 4ebd
000002d0: 7d71 7d3c fcb2 ca3b 1908 aebc 06f7 883d
000002e0: ed88 54bb 975a 89bd d028 59bc 5a4b cfba
000002f0: e530 4ebd 5ede b5bd 0651 9dbd 8ab7 dbbc
00000300: 3a94 96bb 9891 6d3d 6dda c0bd 7f6c 5b3d
00000310: 4d31 213e dbe7 a2bc af4d 96bc 90d5 9ebd
00000320: e210 f0bb e395 f03c e7a5 83bd 13a5 84bd
00000330: 35c6 9c3d e064 d43d ab6a 76bb 81dc e7bd
00000340: 6421 24bb 55dd 293c 0e39 24bc cd32 ec3c
00000350: cc7b 633d a6c3 143c d82e 443d 3e80 4f3a
00000360: 48d2 3dbd ceaf 9c3d 0da3 623d cd1a a1bd
00000370: 8cd4 653c 5d14 3a3d 9df5 08bd f5ea c8bc
00000380: 1f43 d2bc 9f9a 023c 076e 8f3d caba cc3d
00000390: bf39 3fbd 5cdc 123c 73a7 c63d f933 32bd
000003a0: 37e1 3d3d 1d84 333d 8a00 c5bc 8e13 2bbc
000003b0: 1cc4 29ba 60cd b1bc c93c 813a 26aa 45bd
000003c0: a60c 9abc baf3 52bc 46bd b5bc 63e1 d0bc
000003d0: 5476 b4bb f68f 8abd e8c0 d0bd ca89 d4bb
000003e0: 0d10 963c cee8 ad3d 47ad 0dbd 40f0 6dbd
000003f0: f9ed 3e3d c23a 91bc 9e69 c5bd 4f86 02bd

bias f4 [32]
-0.033721536 0.048865367 -0.029126009 0.015834404 -0.009848391 -0.025408372 0.03956218 -0.041750524
0.00591074 -0.0036138825 0.053646512 0.0053269733 0.028169127 -0.057335448 -0.023372797 -0.03547256
-0.0012837929 0.036268726 0.04953963 0.046995066 -0.029385949 -0.04029077 -0.01855109 0.012724426
-0.03621832 -0.048099335 0.04732283 0.025190977 -0.057882518 -0.020867942 -0.05148178 0.004584752
00000000: 981f 0abd 0d27 483d ab99 eebc 27b7 813c
00000010: 255b 21bc 3825 d0bc f40b 223d 9902 2bbd
00000020: e1ae c13b e3d6 6cbb 72bc 5b3d e48d ae3b
00000030: f1c2 e63c 93d8 6abd 4f78 bfbc ad4b 11bd
00000040: f144 a8ba 848e 143d 11ea 4a3d e67d 403d
00000050: cdba f0bc ef07 25bd 75f8 97bc 1c7a 503c
00000060: a959 14bd cf03 45bd 95d5 413d 4f5d ce3c
00000070: 3816 6dbd 3ff3 aabc 8fde 52bd b03b 963b
