lab4/models/MNIST_model.pt (torch, 85478 bytes, 14 tensors)

weight f4 [32, 1, 3, 3]
0	0x3e1e07b3	0.15432625
1	0xbe058e5a	-0.13042584
2	0xbdcdb384	-0.100440055
3	0xbe3bf720	-0.1835599
4	0x3ddb27bf	0.1070094
5	0xbe34db04	-0.17661673
6	0x3d7a929a	0.061174966
7	0x3d2bef88	0.04197648
8	0xbe978a9d	-0.2959794
9	0xbe2f7cc2	-0.17137435
10	0xbdd8e319	-0.105901904
11	0x3e9d0668	0.3066895
12	0xbe9a1bfc	-0.30099475
13	0x3d5cf1d9	0.05394158
14	0x3e875cd1	0.26438
15	0x3e8c2a0a	0.27375823
16	0x3e3e57ef	0.18588232
17	0xba627993	-0.0008639332
18	0xbcc0890f	-0.023502855
19	0xbe12241a	-0.14271584
20	0xbea0ec0b	-0.31430086
21	0x3e07d4a5	0.13264711
22	0xbd48825b	-0.04895244
23	0xbe0163eb	-0.12635772
24	0x3eaecea8	0.3414204
25	0x3d445db8	0.04794094
26	0x3e04d274	0.12970906
27	0xbe0a6eea	-0.13518873
28	0xbe652edc	-0.22381157
29	0x3e9abaf7	0.30220768
30	0xbd250d66	-0.04029598
31	0xbeb32c06	-0.34994525
32	0xbec33f52	-0.38134247
33	0x3e30e082	0.17273143
34	0x3e9ec226	0.31007499
35	0xbe569a10	-0.20957208
36	0xbce091d9	-0.027413296
37	0xbca89f37	-0.020583732
38	0x3d9d7973	0.0768918
39	0xbdcf87fa	-0.10133357
40	0x3e3edd89	0.18639196
41	0xbe28e4c4	-0.16493517
42	0xbdb27ecf	-0.08715593
43	0x3e323dff	0.17406462
44	0xbdb1f8c7	-0.08690029
45	0xbda0c022	-0.078491464
46	0xbe96fef3	-0.29491386
47	0x3e1ec421	0.15504505
48	0xbe2c7e63	-0.16845088
49	0x3e428f41	0.1899996
50	0xbe482f01	-0.1954918
51	0x3cb5962e	0.022166338
52	0x3e45f766	0.19332656
53	0x3e68a808	0.22720349
54	0xbe918a73	-0.2842594
55	0x3e08d4c7	0.13362418
56	0xbdf9eda6	-0.12203531
57	0xbe94888c	-0.29010427
58	0xbe3c5052	-0.18390015
59	0xbd8b3cc2	-0.06798698
60	0x3e86be8d	0.26317254
61	0x3d4b5bf8	0.049648255
62	0x3da88f61	0.08230472
63	0x3db75e7d	0.08953569
64	0xbd27016d	-0.040772844
65	0xbe84ec35	-0.25961462
66	0xbda934c8	-0.0826202
67	0xbe3f7eb0	-0.18700671
68	0x3e75ccb7	0.24003874
69	0x3e4064c1	0.18788435
70	0x3e70d211	0.23517634
71	0x3c98565a	0.018595863
72	0x3e0e6815	0.13906892
73	0x3e8faee9	0.28063133
74	0xbd79aa12	-0.060953207
75	0x3cc4edc5	0.024039159
76	0x3c9f2a76	0.019429427
77	0x3e2e5f15	0.17028458
78	0xbea6a098	-0.32544398
79	0x3dd2b0bf	0.10287618
80	0x3e989469	0.29800728
81	0x3e200b76	0.15629372
82	0xbd303860	-0.043022513
83	0xbe5f3859	-0.21798839
84	0x3d542df8	0.05180165
85	0x3e77a7a3	0.24185042
86	0xbe123d17	-0.14281116
87	0xbe1e0650	-0.15432096
88	0x3e53aa6f	0.20670484
89	0x3df89879	0.12138457
90	0xbe7f405a	-0.24926892
91	0xbe5482a8	-0.20752966
92	0xbbcbc441	-0.0062184636
93	0xbc1929cc	-0.009348344
94	0xbea46e2c	-0.32115304
95	0xbe6d052f	-0.23146509
96	0xbe66a785	-0.22524841
97	0x3ebf057a	0.37308866
98	0xbe458989	-0.19290747
99	0x3d8eda33	0.06975212
100	0xbe50adff	-0.20378874
101	0xbd301983	-0.04299308
102	0x3e5cac00	0.21549988
103	0xbd0f9e2d	-0.035062958
104	0xbe408120	-0.18799257
105	0xbd2ebdbd	-0.042661417
106	0x3e322cac	0.17399853
107	0xbe999072	-0.29993016
108	0x3ebafcf4	0.36521113
109	0x3e97c244	0.296404
110	0xbe728719	-0.23684348
111	0xbe1df393	-0.15424947
112	0xbd0fb9d8	-0.035089344
113	0x3e425b8f	0.1898024
114	0xbd31229f	-0.043245908
115	0x3d4b2cac	0.04960315
116	0xbeb57266	-0.35438842
117	0xbe88d812	-0.2672735
118	0xbe4115ac	-0.18855923
119	0xbe91165c	-0.2833737
120	0xbe7353f7	-0.23762499
121	0x3e334294	0.17505866
122	0x3c2f3c65	0.0106955515
123	0xbdf0518d	-0.117343046
124	0xbe16a395	-0.14710839
125	0x3eab119f	0.3341188
126	0x3d56c0ed	0.052430082
127	0xbe8a03d6	-0.26956052
128	0x3e53f26e	0.20697948
129	0x3d4ef62e	0.050527744
130	0x3c1cfaf4	0.009581316
131	0x3e0d8160	0.13818884
132	0x3e7d2372	0.24720553
133	0x3e1a1054	0.15045291
134	0xbe0a9094	-0.13531715
135	0xbd4e4c00	-0.050365448
136	0x3e38ad9d	0.18034978
137	0x3d4ce6ef	0.050024923
138	0xbdd788fc	-0.105241746
139	0xbd1b2823	-0.037880074
140	0xbde0daad	-0.10979209
141	0xbe58d5c9	-0.21175303
142	0xbda182bb	-0.07886263
143	0xbb30c8bc	-0.0026975116
144	0xbebe482c	-0.37164438
145	0x3d6034b9	0.05473778
146	0xbe98bca9	-0.29831436
147	0x3daa1cd9	0.083062835
148	0x3d69135d	0.056903232
149	0xbe610220	-0.21973467
150	0xbd3fd93d	-0.046838034
151	0x3e861eb6	0.26195306
152	0xbdfc41e3	-0.123172544
153	0xbe18dd59	-0.14928187
154	0xbe39790d	-0.18112583
155	0x3e853d27	0.26023218
156	0xbe6acfa3	-0.2293077
157	0x3e285240	0.16437626
158	0x3e76135b	0.24030821
159	0xbdf34727	-0.118788056
160	0x3dfca86e	0.12336813
161	0x3e1f0533	0.15529327
162	0xbe457a14	-0.1928485
163	0x3e7ca1fb	0.24671166
164	0xbe5a194b	-0.21298711
165	0xbea709ea	-0.3262475
166	0xbdd24b40	-0.10268259
167	0x3cc3d6c2	0.023906115
168	0xbd0806ef	-0.033209737
169	0x3e246ff4	0.16058332
170	0xbe1fc80a	-0.15603653
171	0xbeab83c9	-0.33498982
172	0xbdf9cf36	-0.121977255
173	0xbe5c8ff8	-0.21539295
174	0xbd167e4b	-0.036741536
175	0x3e3d5577	0.18489634
176	0x3eb724a3	0.3577014
177	0x3da54fef	0.08071887
178	0x3e8343ae	0.25637573
179	0xbe86935f	-0.2628431
180	0x3e20b7f5	0.15695174
181	0x3e58c239	0.2116784
182	0x3e9e7461	0.30948165
183	0xbdb4e06d	-0.08831868
184	0x3e4d2add	0.20035882
185	0xbdf56b7d	-0.119833924
186	0xbaaf49c1	-0.0013373421
187	0x3ea14a9a	0.3150223
188	0x3e6f1d0a	0.23350921
189	0x3e0c451d	0.1369824
190	0xbb347868	-0.0027537588
191	0x3d4d9a43	0.050195944
192	0xbd8249f3	-0.06361761
193	0xbe97f489	-0.29678753
194	0x3e98a983	0.29816827
195	0x3e70ad52	0.23503616
196	0x3dd25653	0.10270371
197	0xbd052152	-0.03250248
198	0x3b937e5e	0.004501148
199	0x3e7f5bf4	0.24937421
200	0x3e05dd7d	0.13072772
201	0x3eb4ef57	0.35338852
202	0xbe9bb574	-0.30411875
203	0x3db6bd27	0.08922797
204	0x3d98828e	0.07446776
205	0x3df783c5	0.1208568
206	0x3d3c3cc3	0.045956384
207	0x3e64147b	0.22273438
208	0x3cfff025	0.03124244
209	0xbe340457	-0.1757978
210	0x3e88ead1	0.2674165
211	0xbe433168	-0.19061816
212	0xbe53cf33	-0.20684509
213	0xbeceb4c4	-0.40372288
214	0xbd2c9ca9	-0.04214159
215	0xbcb7d083	-0.022438293
216	0x3e7be260	0.24598074
217	0x3e787fce	0.24267504
218	0xbe50e03d	-0.2039804
219	0x3d92b824	0.07164028
220	0xbcd70a76	-0.026250105
221	0x3e97e8a8	0.2966969
222	0xbea44465	-0.3208343
223	0xbea5c17b	-0.32374176
224	0x3eaa10e9	0.33216026
225	0x3a62f5b8	0.0008657831
226	0xbe8afe55	-0.27147165
227	0xbde1a543	-0.11017849
228	0x3e83cb7b	0.2574118
229	0xbe5d8f7c	-0.21636766
230	0x3e73899c	0.23782963
231	0xbc86f422	-0.016473833
232	0x3e8166ec	0.25273836
233	0x3d3123f7	0.04324719
234	0xbe5c08c2	-0.21487716
235	0xbde64bed	-0.112449504
236	0xbe4c2fc7	-0.199401
237	0xbe401108	-0.18756497
238	0xbd2c55ff	-0.0420742
239	0x3e468eee	0.19390461
240	0xbe89951b	-0.2687157
241	0x3dc01813	0.09379592
242	0x3e2bd41a	0.16780129
243	0xbdd02632	-0.10163535
244	0xbc8e4714	-0.017367877
245	0xbe871c69	-0.26388863
246	0xbea610c9	-0.3243468
247	0xbe80a877	-0.25128528
248	0xbe8ad0d1	-0.2711244
249	0xbe91a1a6	-0.2844364
250	0xbb15e9c6	-0.0022874936
251	0xbe3369d4	-0.17520839
252	0x3db01c83	0.08599188
253	0x3dbdbc6e	0.09264456
254	0xbe8d4a50	-0.27595758
255	0x3e9eb377	0.30996296

bias f4 [32]
0	0x3e4bf5d8	0.19918
1	0x3e2a30af	0.16620134
2	0xbd114ecf	-0.03547555
3	0xbe7f4208	-0.24927533
4	0x3e05b12a	0.13055864
5	0x3da2ed87	0.07955461
6	0xbd2745ff	-0.040838238
7	0x3dfbc855	0.1229407
8	0xbe9cb7c2	-0.30608946
9	0x3e1509ba	0.14554492
10	0xbe5e2e02	-0.21697238
11	0x3dc0cdde	0.09414266
12	0xbe0beace	-0.1366379
13	0x3ea251b9	0.31702974
14	0x3dfbb8af	0.12291085
15	0xbe88e558	-0.26737475
16	0xbc508123	-0.012726101
17	0xbddf1aab	-0.108937584
18	0x3cab3980	0.020901442
19	0x3ea7cb2c	0.32772195
20	0xbbde4724	-0.006783383
21	0x3e3ed040	0.18634129
22	0x3d188db8	0.03724453
23	0x3e82e576	0.2556569
24	0x3e4906b0	0.19631457
25	0x3e905720	0.2819147
26	0x3d80f778	0.06297201
27	0xbd9efb2e	-0.077627525
28	0xbd382465	-0.044956584
29	0xbe8bb50b	-0.27286562
30	0x3ea057b2	0.31316906
31	0xbe22be6f	-0.15892957

weight f4 [32]
0	0x3f8ac7f8	1.0842276
1	0x3f6d252e	0.92634857
2	0x3f886200	1.0654907
3	0x3f8a5daa	1.0809834
4	0x3f7ec9cc	0.9952667
5	0x3f5af8a4	0.85535645
6	0x3f7f6666	0.9976562
7	0x3f7c6014	0.98584104
8	0x3f759eeb	0.95945615
9	0x3f8b26cf	1.0871218
10	0x3f8e9f9b	1.1142458
11	0x3f8788a3	1.0588573
12	0x3f7277f6	0.94714296
13	0x3f884111	1.0644857
14	0x3f63863a	0.8887669
15	0x3f8eb0ab	1.1147665
16	0x3f7f4c08	0.9972539
17	0x3f78d807	0.9720463
18	0x3f691634	0.91049504
19	0x3f8034eb	1.0016149
20	0x3f598828	0.8497338
21	0x3f80be25	1.0058028
22	0x3f453093	0.77027243
23	0x3f88aa1f	1.0676917
24	0x3f85e1fd	1.0459591
25	0x3f76c892	0.96399796
26	0x3f85a271	1.0440198
27	0x3f89a01c	1.0751987
28	0x3f7ec179	0.99513966
29	0x3f6e73db	0.9314553
30	0x3f836aa6	1.0266922
31	0x3f86560b	1.0495008

bias f4 [32]
0	0x3d406580	0.046971798
1	0x3ce5d890	0.028057367
2	0x3d5d13ba	0.05397389
3	0x3dd53d40	0.10412073
4	0xbdc86578	-0.09784979
5	0xbd96d534	-0.07364884
6	0x3bcf696d	0.0063297064
7	0x3db44090	0.08801377
8	0x3d8208ac	0.0634931
9	0xbd2a2816	-0.041542135
10	0x3da52d99	0.08065338
11	0xbc6ebdf8	-0.014571659
12	0x3c661447	0.01404292
13	0x3d92ba7e	0.07164477
14	0xbc8a3502	-0.01687098
15	0x3d9b5871	0.07585228
16	0xbd2c6af9	-0.042094205
17	0x3d45aff2	0.048263498
18	0xbdb05007	-0.08609014
19	0x3cb1c180	0.021698713
20	0x3b179943	0.0023132123
21	0x3d7b8cf7	0.06141373
22	0xbdbf5662	-0.09342648
23	0xbc1f6228	-0.009727992
24	0x3c626ebd	0.013820347
25	0xbd0fb562	-0.03508509
26	0x3cd5db69	0.0261056
27	0x3d8e4077	0.069458894
28	0xbd110833	-0.03540821
29	0x3c3cde1d	0.011527565
30	0x3d3cb376	0.046069585
31	0x3d9483c5	0.072516955

running_mean f4 [32]
0	0x3e307db4	0.17235452
1	0x3f21719d	0.63063985
2	0x3e3cde6d	0.18444224
3	0xbe66293d	-0.22476669
4	0x3e3c6b70	0.18400359
5	0x3e95a2c4	0.29225743
6	0x3b10b1eb	0.0022078704
7	0x3eb6869b	0.3564957
8	0x3e2103ed	0.15724154
9	0x3ebbf608	0.36711144
10	0xbeab991c	-0.3351525
11	0x3e092a2f	0.13394998
12	0x3de2494b	0.11049136
13	0x3ead6f75	0.33874097
14	0x3eeb84e9	0.4599984
15	0xbe8a4c04	-0.2701112
16	0xbd2dc938	-0.042428225
17	0x3e822fa9	0.25426987
18	0xbd15eb79	-0.036601517
19	0x3f05103a	0.51977885
20	0x3f3e5ca1	0.7436009
21	0x3ef3edf1	0.47642472
22	0x3f02c768	0.5108552
23	0x3e9fef82	0.31237417
24	0x3f0f9aae	0.560954
25	0x3f064fc8	0.52465487
26	0x3deaf0be	0.11471699
27	0xbe96700b	-0.29382357
28	0x3e1f4a36	0.15555653
29	0x3c8cafa2	0.017173592
30	0x3efc3b0f	0.49263808
31	0xbe3ae804	-0.1825257

running_var f4 [32]
0	0x3cd02568	0.025408462
1	0x3eb2b082	0.3490029
2	0x3dedfb73	0.11620226
3	0x3d575358	0.052569717
4	0x3c0772bd	0.008267102
5	0x3dbbc8b8	0.091691434
6	0x3d24b0d4	0.0402077
7	0x3dc0d55d	0.09415696
8	0x3e9aafde	0.302123
9	0x3dab5b83	0.08367064
10	0x3daeea61	0.08540798
11	0x3d0889ae	0.033334427
12	0x3e009fb2	0.12560919
13	0x3d903279	0.07040877
14	0x3e1e8c9b	0.15483324
15	0x3c883aeb	0.016629657
16	0x3d12b894	0.03582056
17	0x3e851942	0.25995833
18	0x3cbf33bb	0.023340097
19	0x3dcc9d13	0.09990897
20	0x3f3c9123	0.7365896
21	0x3dc6da9f	0.097096674
22	0x3e900551	0.28129056
23	0x3d7f2910	0.06229502
24	0x3e4bec9c	0.19914478
25	0x3dc8ff94	0.09814373
26	0x3d849249	0.06473214
27	0x3e64efa1	0.22357036
28	0x3dcb4e61	0.09927059
29	0x3e0e4b74	0.1389597
30	0x3dae6376	0.085150644
31	0x3cf9d1d1	0.030495556

weight f4 [32, 32, 3, 3]
0	0x3d9ca2a8	0.07648212
1	0xbdcbd6db	-0.0995309
2	0xbc83c762	-0.016086284
3	0xbc212cbf	-0.009837328
4	0xbc65c23c	-0.01402336
5	0xbcc0aa1b	-0.023518613
6	0xbc55c83b	-0.013048227
7	0xbe04702a	-0.12933412
8	0xbd9cf6a7	-0.07664233
9	0x3d3157f5	0.043296773
10	0xbb820243	-0.003967555
11	0x3d0fdba0	0.03512156
12	0xbc8062e4	-0.015672155
13	0xbc0f7cda	-0.008757794
14	0x3d3a91cc	0.0455492
15	0xbd3141e5	-0.043275733
16	0x3cf1feba	0.029540408
17	0x3d9ed64e	0.07755719
18	0xbd847617	-0.06467836
19	0xbc843d1b	-0.016142419
20	0xbc943991	-0.018093856
21	0xbc1d0ece	-0.009586049
22	0x3d8646c3	0.065564655
23	0x3d79c9d0	0.06098348
24	0x3d0f9a1c	0.03505908
25	0x3bbcd5cc	0.0057627913
26	0xbd059059	-0.032608364
27	0xbd433923	-0.04766191
28	0xbd27a16d	-0.040925432
29	0xbdb29df7	-0.08721536
30	0x3b3761a9	0.0027981794
31	0x3cf843b0	0.030305713
32	0xbd1c1cbd	-0.038113344
33	0x3d63216e	0.055451803
34	0xbd247f71	-0.0401606
35	0xbc06e60a	-0.0082335565
36	0xbc72dd58	-0.01482328
37	0x3c398a3c	0.011324462
38	0xbd523b7e	-0.051326267
39	0x3bdf7cf4	0.0068203155
40	0x3d0317e4	0.032005206
41	0x3cb44bf6	0.022008877
42	0xbe0a4182	-0.13501552
43	0xbd8455e8	-0.06461698
44	0x3cd3bf64	0.025848098
45	0x3d93dd54	0.07219949
46	0x3d001358	0.031268448
47	0x3cab183a	0.020885576
48	0x3ca9517b	0.020668736
49	0xbbd60cb5	-0.0065322765
50	0xbd3837e6	-0.044975184
51	0xbbc7dd39	-0.00609937
52	0xbd8795de	-0.06620382
53	0xbd8a7e45	-0.06762365
54	0x3c462777	0.01209437
55	0xbc816397	-0.015794558
56	0x3cea14d5	0.028574387
57	0xbdbb8a31	-0.09157217
58	0xbca8d62a	-0.020609934
59	0x3cc6f7ab	0.02428802
60	0x3c586a56	0.013208946
61	0xbb783240	-0.0037871748
62	0xbd8e9a48	-0.069630206
63	0x3c409de4	0.011756394
64	0xbccd95d3	-0.025095856
65	0xbb7aef23	-0.003828951
66	0xbd171143	-0.036881696
67	0x3dba6d38	0.09102863
68	0x3dd03069	0.101654835
69	0x3dbbdfa7	0.09173518
70	0xbc55dc08	-0.013052948
71	0x3d285275	0.041094262
72	0xbd305f9d	-0.043059934
73	0xbc040150	-0.008056954
74	0xbd1a6a49	-0.037699018
75	0x3ccc24a7	0.024919821
76	0x3d1f7717	0.038931932
77	0x3d1a57d5	0.03768142
78	0x3d7b95a6	0.061422013
79	0x3c9406f6	0.018069725
80	0x3be1a7de	0.0068864664
81	0xbc1cee29	-0.009578266
82	0xbdcca91f	-0.09993195
83	0xbda8883a	-0.08229108
84	0x3d703ef8	0.0586538
85	0x3dfa854d	0.12232456
86	0x3db535de	0.08848165
87	0x3d2a4f85	0.041579742
88	0x3debab25	0.115072526
89	0x3a83e68a	0.0010063213
90	0xbc2722a4	-0.01020113
91	0xbd2afb17	-0.041743364
92	0xbdfe6913	-0.12422385
93	0xbbe0d289	-0.0068610352
94	0xbc120440	-0.008912146
95	0xbceb796b	-0.02874442
96	0xbda611e6	-0.081088826
97	0xbc88e915	-0.016712705
98	0xbdc46e96	-0.09591405
99	0xbc5852b5	-0.013203313
100	0x3c8c88ff	0.017155169
101	0xbdd926f2	-0.10603131
102	0x3c80f498	0.015741631
103	0x3c9fe96e	0.019520488
104	0xbcabbac3	-0.020963078
105	0xbd06e948	-0.032937318
106	0xbcd873b2	-0.026422355
107	0x3c42a6cd	0.011880589
108	0xbdcdbb7e	-0.10045527
109	0x3d0a99cf	0.03383809
110	0xbd7cbe8f	-0.06170517
111	0xbc7fce87	-0.015613205
112	0xbda45d53	-0.08025613
113	0xbd4a90bc	-0.049454436
114	0xbd409bc3	-0.047023546
115	0x3d2c1b4b	0.042018216
116	0x3dd80fc3	0.10549881
117	0x3d344dfd	0.044019688
118	0x3cb50cbe	0.022100803
119	0x3c7f3d39	0.015578561
120	0xbc837476	-0.016046744
121	0x3cd2dad2	0.025739107
122	0xbd104672	-0.035223432
123	0x3c0b1f9e	0.008491425
124	0xbd780959	-0.06055579
125	0xbcfb3ca0	-0.030668557
126	0x3dec9a02	0.11552812
127	0xbd282c86	-0.041058086
128	0x3c115ee3	0.00887272
129	0x3d51ee31	0.051252548
130	0x3b93a4f7	0.0045057493
131	0x3d1f3c06	0.038875602
132	0x3cebfc27	0.028806759
133	0x3d36f1f1	0.044664327
134	0x3d4bd4db	0.04976354
135	0xbda18fee	-0.078887805
136	0xbcef5d1b	-0.0292192
137	0xbd829e68	-0.0637787
138	0x3c51624d	0.012779784
139	0xbc87d500	-0.016581059
140	0xbd9df726	-0.077131554
141	0xbc44788a	-0.011991629
142	0xbbf3f569	-0.0074450267
143	0x3bafe588	0.0053679384
144	0x3d46984c	0.048485085
145	0xbd682e2c	-0.056684658
146	0xbc978e8d	-0.01850059
147	0xbc90f17b	-0.017693272
148	0x3d03af92	0.03214986
149	0xbab0ed3a	-0.0013498433
150	0xbcc32428	-0.023820952
151	0xbd423809	-0.04741672
152	0xbcd9b290	-0.026574403
153	0x3cfe3f45	0.031036029
154	0x3c6ce891	0.014459745
155	0xbd494dad	-0.049146343
156	0xbd8648bd	-0.065568425
157	0xbdb665e4	-0.08906153
158	0xbd4178b4	-0.047234252
159	0xbda99138	-0.082796514
160	0xbd5cdad7	-0.05391964
161	0x3b5a2e0d	0.0033291609
162	0x3df7448d	0.12073622
163	0x3d0201a0	0.03173983
164	0xbbdc3582	-0.006720246
165	0xbda805ae	-0.08204208
166	0xbd763861	-0.06011236
167	0xbe06303b	-0.13104336
168	0xbbf9d5a7	-0.0076243463
169	0x3d4a1f3c	0.049346194
170	0x3da1230a	0.07868011
171	0x3d1f9745	0.03896262
172	0x3d6435b0	0.055715263
173	0x3cd16bb7	0.025564058
174	0xbdae419d	-0.085086085
175	0x3d0a84b5	0.033817966
176	0x3c35ec94	0.011103768
177	0xbdab549c	-0.08365747
178	0x3aa94e72	0.0012917055
179	0xbc1826d4	-0.009286601
180	0x3d3e1021	0.0464021
181	0xbc7f5556	-0.0155843105
182	0xbcfa1b80	-0.030530691
183	0x3d5f2672	0.054480024
184	0x3b6da082	0.0036259
185	0xbd02ed7d	-0.031964768
186	0xbcc7b6f7	-0.024379237
187	0xbd6126a6	-0.0549685
188	0x3d96ac00	0.07357025
189	0x3d85ee5e	0.065396056
190	0x3ca81cfc	0.020521633
191	0xbcf6bb1a	-0.030118514
192	0xbcdbfbdd	-0.026853496
193	0x3d4f9582	0.05067969
194	0x3d5ef1c2	0.054429777
195	0xbc0fbf0f	-0.008773579
196	0xbca5a772	-0.020221446
197	0x3d90dfe6	0.07073955
198	0x3c8346de	0.016025003
199	0x3cbd483f	0.023105739
200	0x3d42bffd	0.047546376
201	0x3d159dd5	0.036527473
202	0xbce41441	-0.027841689
203	0x3cb08859	0.02154939
204	0xbcdfd051	-0.027321013
205	0x3cf18f4c	0.029487275
206	0x3d3c2bc5	0.04594018
207	0x3dd054c8	0.10172421
208	0x3d6d43fa	0.057926156
209	0x3dda8c6c	0.106713146
210	0xbd40446e	-0.04694026
211	0xbd5107cd	-0.05103283
212	0x3ca01ea8	0.019545868
213	0xbe02d31d	-0.12775846
214	0xbd83c1d8	-0.06433457
215	0xbd4297bb	-0.047507983
216	0xbd93abb7	-0.072104864
217	0xbd525aa4	-0.051355973
218	0xbd453ee4	-0.04815568
219	0x3d5a112b	0.05323903
220	0xbcb1ab36	-0.021688085
221	0x3d4c3033	0.049850654
222	0x3d88ca08	0.066791594
223	0x3ddae85c	0.1068885
224	0x3abfa442	0.0014621096
225	0x3d54ae1c	0.051923856
226	0x3d213634	0.039358333
227	0xbdaaf078	-0.08346647
228	0xbd2737e3	-0.040824782
229	0x3db00089	0.08593852
230	0x3dd42cf9	0.1036014
231	0xbb88c4ec	-0.0041738655
232	0x3dc5b366	0.09653358
233	0xbbf280d4	-0.0074006114
234	0x3d1a91c1	0.037736658
235	0x3cf14bd3	0.029455101
236	0xbca7e34b	-0.020494124
237	0xbce1c6a5	-0.027560541
238	0xbda3aefc	-0.0799236
239	0xbc1a2529	-0.009408274
240	0xbc9c1587	-0.019053234
241	0x3aa17f32	0.0012321232
242	0xbd21807d	-0.039429177
243	0xbd1f68e2	-0.038918383
244	0xbd0ad836	-0.0338976
245	0xbdde9fcf	-0.10870325
246	0xbd1948f9	-0.037423108
247	0xbe06a3d6	-0.13148436
248	0xbda10227	-0.07861739
249	0xbdc88596	-0.097911045
250	0xbce7803d	-0.028259391
251	0xbdfbbe5c	-0.122921675
252	0x3cc6d306	0.024270546
253	0x3d5edbee	0.05440896
254	0x3d3c478b	0.045966666
255	0x3c63d51d	0.013905791

bias f4 [32]
0	0xbd0a64e6	-0.03378763
1	0xb9c4736e	-0.00037470035
2	0x3d2c0135	0.04199334
3	0xbba4b6f1	-0.005026691
4	0xbd2043b3	-0.039127063
5	0xbd30f41e	-0.04320156
6	0x3c7e0ab4	0.0155054815
7	0xbd678849	-0.056526456
8	0xbd198dcd	-0.037488747
9	0x3d53298f	0.051553305
10	0x3bbf640a	0.005840783
11	0xbc3be8cf	-0.01146908
12	0x3be7a404	0.0070691127
13	0x38e1e8e8	0.00010772218
14	0x3c4bf89b	0.012449409
15	0x3d20f553	0.03929646
16	0xbcce617b	-0.025192967
17	0xbc1ae61d	-0.009454277
18	0x3d6ad1b8	0.05732891
19	0x3cae06b8	0.021243438
20	0x3d822dde	0.06356405
21	0xbcf32353	-0.02967993
22	0xbc00919d	-0.007847217
23	0x3a8ab5ab	0.0010582706
24	0x3d596063	0.053070437
25	0xbb32607a	-0.002721815
26	0xbc8ba4cd	-0.017046357
27	0x3d39db17	0.045374956
28	0x3cff216c	0.031143866
29	0x3d647ead	0.05578487
30	0x3d4a5c81	0.049404625
31	0x3cdd7981	0.027035477

weight f4 [32]
0	0x3f849912	1.0359213
1	0x3f88da95	1.0691706
2	0x3f8e9b2e	1.1141107
3	0x3f8a2d88	1.0795145
4	0x3f80841f	1.004032
5	0x3f8d72c8	1.1050653
6	0x3f8d588d	1.1042649
7	0x3f8caecb	1.0990843
8	0x3f99ef2c	1.2026114
9	0x3f8deb42	1.108742
10	0x3f7c7ad2	0.9862491
11	0x3f96cf52	1.1782019
12	0x3f8ff029	1.1245166
13	0x3f8bd192	1.0923331
14	0x3f8c05e5	1.0939299
15	0x3f86a682	1.0519564
16	0x3f85f9ce	1.0466859
17	0x3f8c2819	1.0949737
18	0x3f91381a	1.1345246
19	0x3f8a2fb2	1.0795805
20	0x3f9517f1	1.1647931
21	0x3f85637d	1.0420986
22	0x3f856260	1.0420647
23	0x3f837826	1.0271041
24	0x3f88d037	1.0688542
25	0x3f91c213	1.1387352
26	0x3f83e96b	1.0305609
27	0x3f872681	1.0558625
28	0x3f845c10	1.0340595
29	0x3f84595a	1.0339768
30	0x3f893c0f	1.0721453
31	0x3f7b3c66	0.98139036

bias f4 [32]
0	0x3e56c533	0.20973663
1	0x3e01102b	0.12603824
2	0x3e247b17	0.1606258
3	0x3dd9f0bf	0.10641622
4	0x3dbe3405	0.09287266
5	0x3e4fbbd0	0.20286489
6	0xbd3d2753	-0.04618008
7	0x3e198da9	0.14995445
8	0x3e3fccaf	0.18730424
9	0x3d8f07a8	0.06983882
10	0x3ddcd8a4	0.107835084
11	0x3df321fc	0.118717164
12	0x3dc9a080	0.09845066
13	0x3daaf771	0.08347977
14	0x3e3be813	0.18350248
15	0x3e60a1a1	0.21936657
16	0xbca155b0	-0.01969418
17	0x3e3e3c51	0.18577696
18	0x3e3054ed	0.17219897
19	0x3dacc581	0.084361084
20	0x3e00d5f5	0.12581618
21	0x3ddd8507	0.108163886
22	0x3dd530a7	0.1040967
23	0x3d528630	0.051397502
24	0x3e15267b	0.1456546
25	0x3e355908	0.17709744
26	0xbd10e745	-0.035376806
27	0x3d21afb9	0.039474223
28	0x3d92b00b	0.07162484
29	0x3dc59077	0.09646695
30	0x3d9c4463	0.07630231
31	0x3ddf5ad7	0.10905998

running_mean f4 [32]
0	0x3f87d43c	1.0611644
1	0x3e465617	0.19368778
2	0x4020a9ae	2.5103564
3	0x4000271c	2.002387
4	0x3fa45bf0	1.2840557
5	0x4005b308	2.0890522
6	0xbf3da5ad	-0.74080926
7	0x40136042	2.30275
8	0x3f838bc2	1.0277026
9	0x3e7b96b9	0.24569215
10	0x3fb066e4	1.37814
11	0x3d5a7673	0.05333562
12	0x3ee285c7	0.4424269
13	0xbed6aabd	-0.41927138
14	0x3dfddbd7	0.12395447
15	0x4021d90d	2.5288727
16	0xbe7ebead	-0.24877425
17	0xbe903b1d	-0.281701
18	0x401b4d60	2.4265976
19	0x3eca4327	0.39504358
20	0x3f012750	0.5045061
21	0x3f26c72a	0.6514765
22	0x3f476d34	0.77901006
23	0x3ff0033e	1.875099
24	0x3f616f30	0.88060284
25	0x3fe07d03	1.753815
26	0x3de9e4a4	0.11420563
27	0x3e398857	0.18118416
28	0x3f6323ba	0.8872639
29	0x3f484bb3	0.7824051
30	0x3f3f0f60	0.74632835
31	0x3f895607	1.0729378

running_var f4 [32]
0	0x3fe1abd8	1.7630568
1	0x3f604af6	0.8761438
2	0x40044e92	2.0672956
3	0x3f9ac1dd	1.2090412
4	0x3feb46c6	1.8380973
5	0x3fdfb0a0	1.7475777
6	0x3f9588ba	1.1682351
7	0x3fbeadd8	1.4896803
8	0x3fdc9a6b	1.7234625
9	0x3f73ce28	0.95236444
10	0x3fa610c0	1.2973862
11	0x3fdf9918	1.7468596
12	0x3fb93d3e	1.4471815
13	0x3f94db05	1.162934
14	0x3f81c8a0	1.0139351
15	0x40141d8e	2.3143039
16	0x3fbcf7b7	1.4763097
17	0x3fb2ac5b	1.3958849
18	0x402215fc	2.5325918
19	0x3fe72d37	1.8060673
20	0x4007fbd3	2.1247451
21	0x3f9fdeef	1.2489909
22	0x3fc59e05	1.5438849
23	0x3f92d936	1.1472538
24	0x400c88c9	2.1958487
25	0x3fbca0b8	1.4736547
26	0x3f9e40e8	1.2363558
27	0x3ff38343	1.9024433
28	0x3f97a72b	1.1847891
29	0x3f91c272	1.1387465
30	0x3f8bd744	1.0925069
31	0x3f8bb557	1.0914716

weight f4 [32, 32, 3, 3]
0	0x3d2bec65	0.04197349
1	0xbc40d696	-0.011769911
2	0x3d3eff1a	0.046630003
3	0xbcf4959b	-0.029856494
4	0x3ccd355b	0.025049856
5	0xbe018775	-0.12649329
6	0x3d85a13a	0.06524892
7	0x3dcf45d8	0.101207435
8	0xbdd501cb	-0.104007326
9	0xbae735b8	-0.0017639911
10	0xbd69ac81	-0.05704928
11	0xbca22339	-0.019792186
12	0x3d1bd712	0.038046904
13	0xbcc5ceed	-0.024146521
14	0x3b2ad0c0	0.0026064366
15	0x3de91591	0.113810666
16	0x3d40bdb2	0.047055908
17	0x3c808a95	0.015691081
18	0x3d8c19e0	0.06840873
19	0x3d821009	0.06350715
20	0x3dc505b0	0.096202254
21	0x3dc2f3e8	0.09519178
22	0x3d562cb2	0.05228872
23	0xbba1787c	-0.004927693
24	0x3c2a4465	0.010392283
25	0xbceab890	-0.02865246
26	0xbe05c41e	-0.13063094
27	0xbdd90a9e	-0.10597728
28	0xbd867c9e	-0.065667376
29	0x3d1a12ac	0.037615463
30	0xbca4440b	-0.020051977
31	0x3d89cd54	0.06728616
32	0x3d5797e4	0.05263509
33	0xbd229dc5	-0.039701242
34	0xbdcbad77	-0.09945195
35	0xbd9efc67	-0.07762986
36	0xbd573b5c	-0.052546844
37	0xbd019892	-0.031639643
38	0xbd1a06d6	-0.037604176
39	0xbd10278b	-0.03519396
40	0x3d2a9eeb	0.041655462
41	0xbe0356d4	-0.12826091
42	0x3e09b278	0.13446987
43	0x3db4d704	0.088300735
44	0x3d8a0cab	0.067406975
45	0xbcb5f558	-0.022211716
46	0xbd6566a2	-0.05600608
47	0x3cc4f3d4	0.024042048
48	0xbc873e22	-0.01650912
49	0xbd1e2571	-0.038609926
50	0x3b49ee58	0.003081223
51	0x3d38159a	0.044942476
52	0x3d498265	0.04919662
53	0xbcbd3c0a	-0.023099918
54	0x3d8131bc	0.06308314
55	0x3c8946d9	0.016757416
56	0xbdf748de	-0.12074445
57	0xbca29053	-0.01984421
58	0xb98cc800	-0.00026851892
59	0x3ccd04ea	0.025026757
60	0xbd97155e	-0.07377122
61	0x3d079182	0.03309775
62	0xbcd20dcc	-0.025641344
63	0xbd3465d8	-0.04404244
64	0x3d630d07	0.055432346
65	0x3decc3e2	0.11560799
66	0xbdc9a52f	-0.098459594
67	0x3ce150f9	0.027504431
68	0xbe28f7dd	-0.16500802
69	0xbdabf836	-0.08396952
70	0x3e0a3b90	0.13499284
71	0x3dfbbd73	0.12291994
72	0xbe02891f	-0.1274762
73	0x3d0d2179	0.03445575
74	0x3e124992	0.14285877
75	0xbda6954f	-0.08133947
76	0x3dacaa54	0.08430925
77	0x3e07c687	0.13259326
78	0x3c7c5925	0.015402113
79	0xbd5f4b28	-0.054515034
80	0xbc633821	-0.013868363
81	0xbdaea361	-0.08527256
82	0xbd841a69	-0.0645035
83	0xbe06b065	-0.13153227
84	0x3b9095e9	0.004412402
85	0xbb713afb	-0.0036808837
86	0x3d677cd0	0.056515515
87	0x3dc25c7f	0.094902985
88	0xbd6c3831	-0.057670776
89	0x3d637100	0.055527687
90	0x3d43d17c	0.0478072
91	0x3cd41393	0.02588824
92	0xbe0b2fa7	-0.13592397
93	0xbc714de5	-0.014728044
94	0xbcf25752	-0.029582653
95	0xbd0dc10b	-0.03460793
96	0x3d687cfe	0.056759827
97	0xbb2b935d	-0.0026180365
98	0xbc5485a8	-0.012971319
99	0xbdc25844	-0.094894916
100	0xbb9e0c0f	-0.004823215
101	0x3d3f7b14	0.046748236
102	0x3ce61c95	0.0280898
103	0x3d53268a	0.051550426
104	0x3e17811a	0.14795342
105	0x3d138c48	0.036022455
106	0xbd5f54fa	-0.0545244
107	0x3b21d913	0.0024696037
108	0x3d8d03ad	0.06885467
109	0xbc44cbfa	-0.012011522
110	0xbd986942	-0.07441951
111	0xbcb819a2	-0.02247316
112	0xbdbbed65	-0.09176139
113	0x3bdbca72	0.006707483
114	0x3d10ce08	0.035352737
115	0xbcebb07d	-0.02877068
116	0x3df21c9d	0.11821864
117	0x3de11998	0.1099121
118	0x3e37c840	0.17947483
119	0xbd96cff0	-0.0736388
120	0x3cec0c57	0.028814478
121	0x3c59f43c	0.013302859
122	0xbe35c7d9	-0.17752017
123	0x3d827205	0.06369404
124	0x3da3238f	0.07965767
125	0x3c209a09	0.00980235
126	0xbc609775	-0.013707985
127	0x3d6f912c	0.058488056
128	0xbcd30fd0	-0.025764376
129	0xbc5cec68	-0.013484098
130	0xbd3dec7e	-0.046368115
131	0xbcdd6909	-0.027027624
132	0xbcfc6eff	-0.030814646
133	0xbdb72102	-0.089418426
134	0x3d89f5b8	0.0673632
135	0x3b9883f5	0.0046544024
136	0x3d2fcdbf	0.042920824
137	0xbc75627c	-0.014977094
138	0xbc583c8e	-0.013198031
139	0x3dc337b5	0.0953211
140	0x3d03b3af	0.03215378
141	0x3cdd520c	0.027016662
142	0xbd83d6ec	-0.064374775
143	0xbd549eb1	-0.051909152
144	0xbbb9d037	-0.005670573
145	0xbc8e2f3d	-0.01735651
146	0xbb4b1ad6	-0.0030991337
147	0xbb8abba4	-0.0042337943
148	0x3dfd4c0b	0.1236802
149	0xbd09a1ed	-0.03360169
150	0xbd326495	-0.043552954
151	0x3d06ea48	0.03293827
152	0xbdadcb62	-0.08486058
153	0xbd25cb99	-0.04047737
154	0xbd0e8cea	-0.034802355
155	0xbda00961	-0.07814289
156	0x3da9899e	0.082782015
157	0x3d1520f3	0.036408376
158	0xbe1694a1	-0.14705135
159	0xbd38d3c0	-0.045123816
160	0x3c9ee16d	0.0193946
161	0xbc23ccb6	-0.009997537
162	0xbd1612ce	-0.036639027
163	0xbd8b6db9	-0.06808037
164	0xbd6585fa	-0.056035973
165	0x3ca14328	0.019685343
166	0x3d345cf5	0.044033963
167	0xbd32fd62	-0.043698676
168	0x3d7325f4	0.059362367
169	0x3c02481b	0.007951762
170	0xbd331757	-0.04372343
171	0x3cf1eb81	0.029531242
172	0x3d1f79a1	0.038934354
173	0x3cc2d956	0.023785274
174	0x3ca6a108	0.020340458
175	0xbdad009f	-0.08447384
176	0xbe7ab034	-0.24481279
177	0x3d955ddb	0.07293292
178	0x3ce03efd	0.027373785
179	0xbdea8615	-0.11451355
180	0xbdd08b25	-0.1018279
181	0x3cf09a51	0.029370459
182	0x3e2716f2	0.16317347
183	0xbc4e4cc1	-0.012591542
184	0xbd2335f1	-0.039846364
185	0xbe22e94d	-0.1590931
186	0xbd908816	-0.07057206
187	0xbcc39b34	-0.023877718
188	0xbdfe2459	-0.124092765
189	0xbd40afa6	-0.04704251
190	0xbc76ea1b	-0.0150704635
191	0x3d7442d2	0.059634037
192	0x3cfe63e0	0.031053483
193	0xbc053639	-0.0081306035
194	0x3d7001d2	0.058595486
195	0x3d1bc2fa	0.03802774
196	0xbc0dea64	-0.00866184
197	0xbd2e2bc1	-0.042522196
198	0xbdd4a7e2	-0.103835836
199	0x3d866380	0.06561947
200	0x3c962805	0.01832963
201	0xbd306a36	-0.04307004
202	0x3bd42029	0.0064735604
203	0xbdc9480c	-0.09828195
204	0xbdb80b91	-0.08986581
205	0xbce811bf	-0.028328774
206	0x3d613908	0.05498603
207	0xbd242a5f	-0.04007947
208	0x3d0400c4	0.032227293
209	0x3d3b2f51	0.04569942
210	0xbd68265e	-0.056677215
211	0x3cf7641c	0.030199103
212	0xbdc0aaf2	-0.09407605
213	0xbd7c2989	-0.06156305
214	0x3d063b16	0.032771192
215	0xbd5960e6	-0.053070925
216	0xbdab0cd2	-0.08352055
217	0x398ea73e	0.00027208956
218	0x3df638fe	0.12022589
219	0x3c8e69f2	0.017384503
220	0x3dc02598	0.093821704
221	0x3c7aa223	0.0152974455
222	0xbcfa0fbb	-0.030525079
223	0x3db1bd7a	0.08678718
224	0x3da620f9	0.08111758
225	0x3d9d20d0	0.07672274
226	0x3c916bd9	0.017751621
227	0xbd40b725	-0.04704966
228	0x3da5e429	0.08100159
229	0xbd6c1f57	-0.057647076
230	0xbd4c92fb	-0.04994486
231	0x3d0496fb	0.03237055
232	0xbd7dfbca	-0.062007703
233	0x3d812c91	0.063073285
234	0xbce4063e	-0.027835008
235	0xbd66dfaa	-0.056365646
236	0xbe0c4067	-0.13696443
237	0x3bb4f673	0.005522543
238	0xbc44a0a6	-0.012001192
239	0xbc044337	-0.008072666
240	0x3dc35e7c	0.09539506
241	0x3dafdb0a	0.085867
242	0x3db3f6b0	0.08787286
243	0x3a2dfd9b	0.00066372164
244	0x3d918eaf	0.07107293
245	0x3d8f4904	0.069963485
246	0x3d3d8870	0.046272695
247	0x3cb350ac	0.021889053
248	0xbe10fcb2	-0.14158896
249	0x3c8b953a	0.01703893
250	0x3d025276	0.031816922
251	0x3d0aef9f	0.033919927
252	0xbc0def6b	-0.008663039
253	0xbc1f75e6	-0.009732699
254	0x3ceeb9b5	0.029141286
255	0x3d774154	0.060365036

bias f4 [32]
0	0xbd132109	-0.035920177
1	0xbb9c49ae	-0.0047695255
2	0x3c858ca3	0.016302412
3	0x3a9d2423	0.0011988919
4	0x3ac112f5	0.0014730381
5	0x3d4e79da	0.050409175
6	0xbbb57a33	-0.005538249
7	0xbd305a45	-0.043054838
8	0x3d73d9d7	0.05953392
9	0xbd5f412a	-0.054505505
10	0xbb916961	-0.004437611
11	0xbd3d2320	-0.046176076
12	0x3d566786	0.05234482
13	0x3d65a159	0.056062076
14	0x3c3e2f57	0.011607966
15	0x3b473aad	0.0030399964
16	0xbd6b031c	-0.057376012
17	0xbae92b53	-0.0017789401
18	0xbc7e1bad	-0.015509528
19	0xbcb44882	-0.02200723
20	0xbc1b7825	-0.009489094
21	0x3ca77d2a	0.020445425
22	0x3d254a87	0.040354278
23	0xbd52e746	-0.05149009
24	0xbc6ce499	-0.014458799
25	0xbc259848	-0.010107107
26	0x3d2e3fb6	0.04254123
27	0x3cc05d8f	0.023482112
28	0x3a1577f6	0.00057017745
29	0x3cccab24	0.02498395
30	0xbd551846	-0.052025102
31	0x3d4c48d4	0.04987414
