lab4/models/MNIST_model_without_class.pt (torch, 85478 bytes, 14 tensors)

weight f4 [32, 1, 3, 3]
000000 11 6b 8b bd db da 99 3e 23 bb 9a be 7b dd 8a 3e
       -0.06807531 0.30049786 -0.302209 0.271221
000010 bd 10 c3 be 48 b6 af bd 8c 5a 68 be 5f 99 8d be
       -0.38098708 -0.08579689 -0.22690791 -0.27656075
000020 20 01 92 3e d7 40 7b 3d af 1f 84 bc 81 9e a5 3e
       0.28516483 0.061341133 -0.01612839 0.3234749
000030 4d 9f 1f be 8c b5 53 3e 35 e7 a3 be ca 60 3f 3d
       -0.15588112 0.20674723 -0.32012334 0.046723165
000040 15 45 0d 3e 17 19 2b 3e ce 13 17 be e2 5a 70 3e
       0.13795884 0.1670879 -0.14753649 0.23472169
000050 4c ff f4 bd 58 d1 a7 be f3 d0 00 3e 96 23 2b 3e
       -0.119627565 -0.32776904 0.12579708 0.16712794
000060 a6 e8 6d be 25 7a 4d be d6 1a fd 3d b4 2f b4 3e
       -0.2323328 -0.20066126 0.12358634 0.35192645
000070 94 49 43 be d5 f0 59 be bc df 1c bd a2 d9 84 3e
       -0.19071037 -0.21283276 -0.038299307 0.2594729
000080 88 8a 64 be 65 63 98 3c ae 20 43 3e 64 27 44 bd
       -0.2231847 0.018602083 0.19055435 -0.04788913
000090 bd 44 3d be ca 60 32 bd 1a 88 5e be f2 aa 06 be
       -0.18483253 -0.043549336 -0.21731606 -0.13151148
0000a0 0e ca 22 be 2d ff a8 bd 87 0b 71 3c 83 5f 1c 3e
       -0.1589739 -0.08251796 0.014712221 0.1527081
0000b0 2f 04 6d be d6 45 bd 3d cb 8e a1 3e de 42 6b 3e
       -0.23146127 0.09241836 0.31554255 0.22974727
0000c0 18 ab b7 3b a9 eb 2a 3e f8 27 2f 3e e1 94 35 3e
       0.0056051128 0.1669146 0.1710509 0.17732574
0000d0 e8 ff 95 3e cf 0d 8f 3e da bf aa 3e 1b c2 29 be
       0.29296803 0.27940223 0.33349496 -0.16577952
0000e0 2e 1c 88 3e ef eb fe bd 03 c7 24 3e 4f bb 89 bd
       0.26584 -0.124473445 0.16091542 -0.067251794
0000f0 dd 4f 8a be 52 58 41 3d 0a 00 3a be ff 1a 3c bd
       -0.27014056 0.04720337 -0.18164077 -0.045924183
000100 32 68 16 3e a2 20 96 3d 3d f6 27 be 5d d3 be 3e
       0.14688185 0.07330443 -0.16402526 0.37270632
000110 8d 79 86 be ff e9 28 be 32 45 95 3e 4a fd 12 be
       -0.2626461 -0.16495512 0.29154354 -0.14354435
000120 77 3d 86 3e 79 5f 55 bd 22 e6 93 be 71 79 a5 3e
       0.2621877 -0.052093003 -0.28886515 0.32319215
000130 93 f7 c7 bd f2 fd 83 be 3d a7 f3 bd 40 0f 8b be
       -0.09764018 -0.25779682 -0.118971325 -0.27160072
000140 83 57 b1 bc 83 c3 59 3e 24 eb c0 3d 73 7b 2a 3d
       -0.021648174 0.21265988 0.094198495 0.041621637
000150 ca 3e 01 be 99 b4 67 bc b7 f4 14 bd 9d 59 b4 be
       -0.12621608 -0.014142179 -0.03636619 -0.3522462
000160 cb e0 7b bd 50 36 b2 3e 77 71 4f 3e 7a 01 70 3c
       -0.061493676 0.34807062 0.20258127 0.01464879
000170 6d 05 87 be c7 02 29 be 7c fa 4d be 25 0d c8 bd
       -0.26371327 -0.16504966 -0.20115083 -0.09768132
000180 90 bf 65 be 8a 55 74 bd a1 63 70 be 09 f1 b4 be
       -0.22436357 -0.05965189 -0.23475505 -0.35340145
000190 0a f3 a4 be 08 3d 46 3e 12 c5 25 3e 47 4b 90 3e
       -0.32216674 0.19359219 0.16188458 0.28182432
0001a0 73 9f 3e bd c8 af 62 3e a4 b3 99 3c a0 f5 de bd
       -0.04653878 0.22137368 0.018762417 -0.10886693
0001b0 f7 77 80 3e 28 cb b5 bd a2 8f 8c be 5d b4 a8 3d
       0.25091526 -0.088766396 -0.27453333 0.082375266
0001c0 30 0d 45 3e 0a 8b 82 3d a4 b4 95 bd 09 d7 5e 3d
       0.19243312 0.06374176 -0.07309845 0.054404292
0001d0 f8 79 ed 3b 87 e6 88 be 09 b7 78 3e 4a 58 1b be
       0.007247206 -0.26738378 0.24288572 -0.15170398
0001e0 a1 bc f4 bd 1e 3f 49 be 13 cd 9f be 87 a6 10 be
       -0.119500406 -0.19652984 -0.31211147 -0.14126025
0001f0 ac 52 82 be e9 ee 4e 3e b2 27 2d 3e 1a 17 51 be
       -0.254537 0.20208324 0.16909674 -0.20418969
000200 d3 96 2d be bd 32 07 bc bd f5 d3 bd 7e d4 a8 bd
       -0.16952066 -0.008251843 -0.10349605 -0.08243655
000210 08 04 a9 3e 8c d9 db 3d 8a 7f 0d 3e f0 16 25 be
       0.33010888 0.10734853 0.13818184 -0.16122031
000220 8b 5b 7f 3d 74 ec 1d 3d 31 ee 84 be 02 3a e1 bd
       0.06234316 0.038555577 -0.25962976 -0.10997392
000230 08 02 32 be 59 74 3b be f1 0a c4 bd 8b cc 28 be
       -0.17383587 -0.18306102 -0.095723994 -0.16484277
000240 9c 6c d1 3d 98 43 63 be 8c 2f 1a bd 4b cd 5d be
       0.10225794 -0.22193754 -0.037643 -0.21660344
000250 b6 5c bc bd 30 03 05 3e 55 50 a9 3d e9 4d 70 be
       -0.09197371 0.12989497 0.08267275 -0.2346722
000260 65 ac c7 3e d0 93 8a 3e c3 35 3d bd 5b 27 7c be
       0.38998714 0.27065897 -0.04619385 -0.24624388
000270 9e 64 81 bc 75 99 b0 3d bd 1f 9f be 50 ca 3d 3e
       -0.015795048 0.086230196 -0.31078902 0.18534207
000280 df 83 9c 3e 99 b1 a9 3e f6 c9 ce bd 7e 65 42 3d
       0.3056936 0.3314331 -0.10097115 0.04746007
000290 33 44 fa 3d 2e a4 92 3e 16 ad f7 3d b5 1a 48 be
       0.12220039 0.28640884 0.120935604 -0.19541438
0002a0 fc cb 57 3e fe c0 8a 3e 9c 6e 82 3e ee 77 bb 3d
       0.21073908 0.27100366 0.25475013 0.09153734
0002b0 c8 5c 6a 3e 18 f2 29 3e 06 23 83 3e 21 62 8e be
       0.22886956 0.16596258 0.25612658 -0.2780924
0002c0 57 65 6f 3e 53 fa 9e bd f1 7d 8c be 86 1a 27 3e
       0.23378502 -0.07762589 -0.27439836 0.16318712
0002d0 8a 15 f6 bb e6 0d 4a be 7a 73 f9 bb c5 5a 55 be
       -0.007509892 -0.19731864 -0.007612643 -0.20835407
0002e0 40 20 82 bd 12 91 62 be 6f f4 60 be ce 90 71 3e
       -0.063538074 -0.22125652 -0.21968244 0.23590395
0002f0 55 c0 3a 3d 49 9b 77 3e c4 9c 54 be 17 56 b4 be
       0.04559358 0.2418033 -0.20762926 -0.3522193
000300 d1 f4 8d bd 34 15 12 3e 79 40 31 be ec f7 2d 3e
       -0.06931461 0.14265901 -0.1730975 0.16989106
000310 b9 79 44 be 65 87 a6 be 4a 28 e2 bc a2 0f fc 3d
       -0.19187059 -0.32525173 -0.027607102 0.12307669
000320 17 76 18 3e 59 cf 72 be 3c 89 b7 be f8 27 e9 bc
       0.14888798 -0.2371191 -0.3584689 -0.028461441
000330 66 62 88 3e 45 42 5c bd 7f 31 b0 bd fd 24 f2 3d
       0.26637572 -0.053774137 -0.08603191 0.11823461
000340 0d bc 7f bd a3 33 02 bc 73 3f 14 be 8d d2 46 be
       -0.0624352 -0.007946881 -0.14477329 -0.19416256
000350 21 19 16 bd e3 6c 30 3e 7f d9 de 3d be 1e 16 3e
       -0.03664506 0.17229037 0.10881328 0.14660165
000360 8e 6c c5 bd ed d3 17 3e 39 26 bc 3c 79 53 2b bc
       -0.09639846 0.14826937 0.022967445 -0.010456913
000370 75 c2 1d 3e c3 9f 2c be 84 e2 26 3e 79 13 98 3d
       0.1540621 -0.1685782 0.16297346 0.07425589
000380 7e 94 52 be b9 75 e2 bd f9 02 3a be 25 6b 14 be
       -0.20564458 -0.1105761 -0.18165196 -0.14493997
000390 fa 61 bc 3d 52 c0 b9 bd 0e f9 b9 bd c8 d3 09 3e
       0.09198375 -0.09069885 -0.090807065 0.13459694
0003a0 a5 1c e4 3d fa b7 0d be 67 23 66 3d 8f 84 87 be
       0.11138276 -0.13839713 0.056186106 -0.26468322
0003b0 2a 8b 56 3e 8f b8 b9 3c 4e 52 0c 3d fb c7 9a 3e
       0.20951524 0.022671012 0.03425818 0.30230698
0003c0 40 31 5b 3e b3 0a b6 bd af 23 ae 3e 79 e4 88 3e
       0.21405506 -0.088887595 0.340116 0.2673681
0003d0 90 4e 86 be b2 59 db 3d 90 f1 ca 3d 5e 36 a1 be
       -0.26231813 0.107104674 0.09909356 -0.3148679
0003e0 62 83 86 3e e3 1f e6 3d 6f 95 4f 3e 25 06 13 be
       0.26272112 0.11236551 0.20271848 -0.14357813
0003f0 cb e0 12 be a8 8c a6 3e b3 b1 8f 3e 7a 7e 15 3e
       -0.14343564 0.32529187 0.2806526 0.14599028

bias f4 [32]
000000 c1 d1 ab be 75 6f af 3d 0d 69 97 3e 5d 5e a6 3d
       -0.33558467 0.085661806 0.29572335 0.08123467
000010 82 86 a4 be 3d 33 b2 bd ce 32 42 3e 8e d4 fb 3d
       -0.3213387 -0.08701179 0.18964693 0.12296401
000020 c6 54 6c 3d 20 29 f9 3d 12 94 11 be 9a 3c 87 be
       0.057698034 0.12166047 -0.1421664 -0.26413423
000030 e9 e2 37 be c6 c9 cd 3d 17 af 42 3d 73 53 87 3e
       -0.17957653 0.10048251 0.04753026 0.26430854
000040 0d ed 25 3e 9d 61 4b be 57 ea 56 3e 14 d5 a8 bd
       0.16203709 -0.19861455 0.20987831 -0.082437664
000050 36 7c 8c 3e bf 46 65 3e f7 33 a1 bd 42 8f 94 3c
       0.27438515 0.22390269 -0.0787124 0.018134717
000060 2d 3e 1c bd 65 1b ba 3e db 05 8b 3c 5c 4b 04 bd
       -0.038145233 0.36349025 0.016970566 -0.03229843
000070 a3 a8 9b bd c3 8b 86 be 18 1d 1f be 9c e6 81 be
       -0.07600524 -0.26278505 -0.15538442 -0.25371253

weight f4 [32]
000000 d8 db 73 3f f7 83 74 3f 20 bf 7b 3f 82 07 6b 3f
       0.9525733 0.9551386 0.9833851 0.9180833
000010 c0 99 94 3f bb fe 6c 3f 41 84 6c 3f 9b 6c 81 3f
       1.1609421 0.9257619 0.92389303 1.0111269
000020 d5 fa 6f 3f c5 22 88 3f dc 7d 8b 3f 43 21 87 3f
       0.93742114 1.0635611 1.0897784 1.0557026
000030 9b c7 74 3f 52 02 8b 3f 02 50 88 3f 1e 82 8b 3f
       0.95617074 1.0860083 1.0649416 1.0899084
000040 8e fc 7b 3f 16 63 80 3f 38 9f 63 3f fc be 77 3f
       0.9843224 1.0030239 0.88914824 0.96775794
000050 8d e8 88 3f 5b 69 84 3f 60 ec 86 3f f5 13 87 3f
       1.0695969 1.0344652 1.0540886 1.0552965
000060 9e 26 76 3f b4 4d 93 3f ba a7 5c 3f 38 5b 82 3f
       0.96152675 1.1508088 0.8619343 1.0184088
000070 fb 27 7d 3f d3 3d 81 3f 68 4b 87 3f de 59 78 3f
       0.9888913 1.0096992 1.0569887 0.97012126

bias f4 [32]
000000 7a 22 96 bc a3 5b 00 3c 52 6c 4b 3a 88 2c 70 bd
       -0.018326987 0.007834348 0.00077599764 -0.05863622
000010 74 2c eb 3d 6b 48 c0 bd 7d 9e 80 bd 1a a9 66 3d
       0.11483088 -0.09388813 -0.06280229 0.05631361
000020 7b d3 44 bd 8b 36 16 3c 41 01 c0 3c 29 79 be 3d
       -0.048053246 0.0091682775 0.023438098 0.09300453
000030 06 42 72 bc f4 d9 bb 3c b8 ab 15 3d 0b 1d 8e 3d
       -0.014786249 0.022931077 0.036540717 0.06939133
000040 4c 36 e3 3d 20 2f 94 ba fc af 5f 3c 96 1a 2f 3d
       0.11094341 -0.0011305548 0.013652798 0.042749964
000050 e8 df a6 3c 35 23 eb bb dd ed 0b 3e b3 7d 22 3c
       0.020370439 -0.007175828 0.13664956 0.009917664
000060 d7 c9 15 bc 13 68 a7 3d 55 de d9 bc 3e fb 21 bc
       -0.009142361 0.081741475 -0.026595274 -0.009886561
000070 ec 65 d0 3c e3 3c 1e bd 0b e0 3e 3c 36 21 85 3d
       0.025439225 -0.038632285 0.011650096 0.06500475

running_mean f4 [32]
000000 f2 83 8c be 1e 27 d2 3e 34 f2 b8 3e 9e cf 9d 3e
       -0.27444416 0.4104547 0.36122286 0.30822462
000010 48 2b de be 0b 68 7f 3f 42 1a b9 3e 86 58 a2 3e
       -0.43392396 0.9976813 0.36152846 0.31708163
000020 07 12 29 3e 02 67 bd 3e 86 2c 6a be 6a 65 b2 bc
       0.16510783 0.3699265 -0.22868547 -0.021776874
000030 d7 b7 45 3d 58 8a ba 3b 00 b0 a1 3e d6 5c 06 3e
       0.048271026 0.0056927614 0.3157959 0.13121352
000040 ec be ac 3e dc c5 8f 3e 61 8b 64 3f 7f 07 a5 3e
       0.33739412 0.28080642 0.89275175 0.32232282
000050 1c b7 71 3e 44 29 65 3e 74 05 c7 bc 92 b6 33 3e
       0.23605007 0.22379023 -0.024294592 0.17550114
000060 6c cc 0c 3e 18 0a be 3e 6a 67 17 3f 52 dd 7c 3e
       0.13749856 0.37117076 0.5914217 0.24693802
000070 5c d7 14 3d 57 65 9b be 3c 97 4c be 15 01 ad bd
       0.036338195 -0.30350754 -0.19979566 -0.08447472

running_var f4 [32]
000000 8b 81 2e 3d e8 0e 14 3e 9c b8 4a 3d fd 1a f1 3d
       0.04260401 0.14458811 0.049492463 0.11772726
000010 1f 39 8c 3d dd 2d cc 3f 85 e9 8f 3d 9b 23 aa 3d
       0.068468325 1.5951496 0.07026962 0.083075725
000020 24 5b e2 3d 2d 63 cd 3d 70 14 c0 3d 3b 44 05 3e
       0.1105254 0.10028682 0.09378898 0.13014309
000030 48 1d c2 3d 54 47 ad 3d 5b 37 0a 3e 0f f5 c1 3d
       0.09478241 0.084608704 0.13497679 0.09470569
000040 0d f3 a1 3d 27 8f b9 3e 50 70 28 3f e1 ce 74 3e
       0.079076864 0.3624203 0.65796375 0.23907043
000050 cb 5f 11 3d 77 8f a6 3d 54 04 cb 3c f2 a2 31 3d
       0.035491746 0.081328325 0.024782337 0.043368287
000060 d4 6a 8b 3d 94 10 fb 3c 5a a9 ee 3e d7 a3 c3 3d
       0.06807485 0.030647554 0.4661358 0.09552734
000070 0d c6 9f 3d 0d fc 70 3d 8e a2 1b 3d 20 b6 a4 3d
       0.07801447 0.058834124 0.03799682 0.0804255

weight f4 [32, 32, 3, 3]
000000 72 b9 a2 3c f3 38 0c bd dd b8 22 bd 1f d5 8e 3d
       0.019863818 -0.034234 -0.03972708 0.069742434
000010 a3 18 e0 3a 8c ad 5d 3c 1f 9b 7a 3d 79 20 4b ba
       0.0017097186 0.013530146 0.06118309 -0.0007748674
000020 f2 83 0c bd 03 90 6b 3d d5 81 31 3d 19 ec 47 bc
       -0.03430552 0.057510387 0.043336708 -0.012202286
000030 40 ce a5 bd c2 99 e9 3b cc 57 7f 3d 63 98 6f bd
       -0.0809598 0.007128925 0.06233959 -0.058494937
000040 53 62 03 bd 27 6b a1 3c e3 79 b6 3d 32 24 94 3d
       -0.03207619 0.019704415 0.08909967 0.07233466
000050 49 bb e1 bd ed 7e cd 3c c6 f2 0a 3d fe 22 28 bd
       -0.1102205 0.025084937 0.033922933 -0.041048996
000060 f2 cf c8 3c 6f c4 76 3c ab 6d 89 3b 4e c6 79 3d
       0.024513219 0.015061482 0.0041939816 0.060980134
000070 3f a7 16 3d 69 49 c2 bd d7 4a 12 3b 80 14 d3 bb
       0.036780592 -0.09486658 0.002232244 -0.006441653
000080 33 dc 66 bd aa 80 4f bc 62 e0 8d bc 20 86 57 bb
       -0.056362342 -0.012664953 -0.017318908 -0.0032886341
000090 61 4e 8b bd e3 01 1f bd 5e 45 9d bd c7 8b f4 bb
       -0.06802059 -0.03882016 -0.07679246 -0.007462952
0000a0 ab 39 2a bc 62 2e 73 bb 46 47 84 3d 93 db 38 3b
       -0.010389726 -0.0037106504 0.06458907 0.0028207048
0000b0 9c c7 1c bd c1 cc 07 3d 06 3a d6 3c d7 29 b9 3b
       -0.0382763 0.033154253 0.026150715 0.0056507397
0000c0 0f c9 b6 3c 9c 06 9f bd b1 10 b8 3c 42 2e 11 bd
       0.02231267 -0.077649325 0.022468897 -0.035444506
0000d0 2e 65 67 bc 32 50 2d 3d f2 f5 fb 3a 4c a9 a5 bd
       -0.014123244 0.04231281 0.0019223078 -0.080889314
0000e0 6e 59 65 3a dc 5f 77 bb 1b e2 10 3b e8 d6 7c 3d
       0.0008748983 -0.0037746346 0.0022107426 0.061728388
0000f0 b7 be bb 3c 1d 27 7e 3c 66 cd 48 bd eb e9 22 3d
       0.022918088 0.015512255 -0.04902401 0.039773863
000100 49 70 d6 3c 43 25 9c bd 0e 80 fd bc 56 80 94 bd
       0.026176589 -0.076242946 -0.03094485 -0.07251041
000110 fd 20 73 bd e4 8f 83 ba a5 05 cc bd ec db 29 3c
       -0.059357632 -0.001003739 -0.09962014 0.010367375
000120 77 33 0d 3d 4b 06 32 3d 6e 43 35 bd c5 70 8f bd
       0.03447291 0.043463033 -0.04425376 -0.07003931
000130 7d 4b 97 bd 33 69 bb bd 47 a2 88 bc 4f 51 d2 bc
       -0.07387445 -0.091509245 -0.016678942 -0.025673537
000140 8a cc 6c 3d e2 dd 98 3d 8e f5 47 bc 6e ac 92 3a
       0.05781225 0.07464196 -0.012204541 0.0011190304
000150 c5 a9 b6 b9 16 3d 42 3d 92 78 3f 3d e3 56 85 bd
       -0.00034840233 0.047421537 0.046745844 -0.06510713
000160 4b 00 0e bd 39 d5 bc 3c 1a 1f e0 bd 6d 9b e8 bd
       -0.03466825 0.023050891 -0.10943432 -0.1135777
000170 b3 fe 59 bd 7b a9 09 3d ff 21 ba bd 69 f3 08 be
       -0.053221416 0.033608895 -0.090885155 -0.13374104
000180 04 bb 88 3d da f4 eb bb de 27 82 bd d5 c4 ab bb
       0.066762954 -0.0072008194 -0.0635526 -0.00524197
000190 13 1c 46 bc a2 ae 45 bb 84 b8 8c b8 fc 9f 90 bc
       -0.012091654 -0.0030163904 -6.710089e-05 -0.017654411
0001a0 2d 23 63 3d 98 d1 de 3c 27 ad b5 bc bf 74 0a 3d
       0.055453468 0.027199551 -0.022177292 0.033802744
0001b0 01 18 d4 bc 13 cf c4 3b 83 ad ad bc c4 a4 52 3d
       -0.025890352 0.0060061305 -0.0212009 0.051426664
0001c0 7b 7d 7d 3d 2e 10 bb 3b 4f 70 5c bd ad 89 a8 bb
       0.061887246 0.005708716 -0.053818043 -0.0051433654
0001d0 c9 7b 45 bd 57 e3 1a bd 0f 35 79 bc b6 cb de bd
       -0.048213754 -0.037814464 -0.015210404 -0.108786985
0001e0 b3 c1 58 bd 12 78 e1 bd 06 75 83 3c 4e 46 f1 3c
       -0.0529191 -0.1100923 0.016047012 0.02945247
0001f0 0c f2 ba 39 73 7a 62 bd 27 ff 9b 3c 30 07 7c 3d
       0.00035657024 -0.055292558 0.019042565 0.061530292
000200 09 82 8b 3d 91 b3 b8 bd e5 c4 66 bc 34 e9 c7 bd
       0.068119116 -0.090186246 -0.014085029 -0.09761277
000210 bf 61 da bd 39 cc 7f bd f7 9c f4 bd 56 dc 2e 3d
       -0.10663175 -0.06245062 -0.11944001 0.042690597
000220 14 62 9c bd 6f 93 83 3c 44 27 65 3d 32 45 e2 3c
       -0.076358944 0.016061513 0.05594565 0.027620886
000230 f8 f5 b5 bc d7 c4 8a 3d de 26 82 3d cb 07 4c 3d
       -0.022212014 0.067758255 0.063550696 0.04981212
000240 93 79 f7 3b 2c 78 08 3d d1 2d be ba 4b fd 24 bd
       0.0075523346 0.03331773 -0.0014509504 -0.04028062
000250 9a bb 98 bd 2e 6d 9c bc c1 4b 46 3d e4 ed 61 3d
       -0.07457657 -0.01909503 0.04841209 0.05515851
000260 06 89 03 3d a0 32 14 3d d6 7e a8 3d 3b 3b 89 3c
       0.032113098 0.036181092 0.08227317 0.016751876
000270 d8 19 02 3d a0 55 78 bd 14 22 a1 bd 81 fe 7e bb
       0.031762928 -0.060628533 -0.07867828 -0.003890902
000280 ac d9 d5 bd b4 66 bd bd f0 31 3e 3d dc 42 60 bd
       -0.10441908 -0.09248105 0.046434343 -0.054751262
000290 f5 54 bc 3c be 36 e9 3c 37 11 b5 bd a4 46 c0 bc
       0.02298973 0.028468486 -0.08841174 -0.023471184
0002a0 a9 d7 f0 bb 88 99 7e 3c 1b 28 84 bc 16 a7 12 b9
       -0.0073499274 0.015539534 -0.016132405 -0.0001398589
0002b0 a0 11 1a 3d d6 ca bc 3d c1 37 a2 3c 96 01 73 3c
       0.037614465 0.092183754 0.019801976 0.014831921
0002c0 c4 62 d5 3d 0d 1a 9f bd 51 8a 05 bd 92 c7 42 bd
       0.10419229 -0.07768641 -0.032602612 -0.047553606
0002d0 a3 98 ff bc 78 5c c9 3c eb 7f 03 3d 21 06 31 3c
       -0.031200713 0.024580225 0.032104414 0.010804684
0002e0 96 d8 30 bd a8 b9 59 bd 65 8c 8f 3d 36 21 23 bd
       -0.043175302 -0.05315557 0.070092 -0.039826594
0002f0 89 e5 aa bd 18 3a da bd 24 c9 70 bd e8 35 e7 bc
       -0.083445616 -0.10655612 -0.058785573 -0.028223947
000300 9b e3 07 bd 64 19 8c bd b2 be ee bc ad 9f bf bd
       -0.033176046 -0.068407804 -0.029143665 -0.093566276
000310 0f 65 db bc 44 23 86 3c 42 34 05 bb da f6 7c bc
       -0.026781587 0.016374238 -0.0020325338 -0.015439713
000320 a3 cd b7 bc 9c 50 11 3d 70 e9 9b 3d 31 bc 83 3d
       -0.022436922 0.035477266 0.07612884 0.06432379
000330 5e 3b e3 bc 3f ec e4 bc 10 4c ec bc 58 fd f1 3c
       -0.02773827 -0.027944682 -0.028844863 0.029539749
000340 56 1c 62 3d 9e b5 9d 3d 7c 5a be bc 4a 8c 09 ba
       0.055202805 0.07700656 -0.023236506 -0.000524704
000350 95 28 95 3c c7 20 a3 3c c7 4d 7c 3d 6c bb eb b9
       0.018207828 0.01991309 0.06159761 -0.00044962333
000360 57 21 8d bc 24 f7 f8 bb d5 62 87 bd 07 f9 9d bd
       -0.017227812 -0.007597821 -0.066106476 -0.07713514
000370 61 63 49 bd d0 ba 2b bd 9b 95 4f bd ff 48 f5 bc
       -0.04916704 -0.041926205 -0.050679784 -0.029942034
000380 8a 4c 44 3d f4 5b 2f 3d 0d 00 05 bc cb 8b 45 bc
       0.047924556 0.042812303 -0.008117688 -0.012057255
000390 05 06 11 be 9d 58 15 3d 1f be ca bc 50 72 c6 bd
       -0.14162453 0.03646146 -0.02474886 -0.09689772
0003a0 71 2b 15 3d 26 fc 04 ba a1 3b f7 3c 7b 69 24 3c
       0.036418382 -0.00050729734 0.0301798 0.010034914
0003b0 ed 05 6f bc 45 97 95 bc 83 26 50 3b 6d 0f 60 bd
       -0.014588815 -0.018260607 0.0031761236 -0.05470221
0003c0 82 58 99 bd 55 a0 99 ba 7c 2f 97 3c 20 a3 4c bd
       -0.07487585 -0.0011720756 0.01845526 -0.049960256
0003d0 48 af 89 3d 7c 1e 8c bd 90 22 e3 bd 0f 45 b0 bc
       0.06722885 -0.06841752 -0.11090577 -0.021517305
0003e0 db 7c a2 3b 55 2d a8 bd 28 98 e9 3c 86 ef a1 bc
       0.0049587316 -0.082117714 0.028514937 -0.019767534
0003f0 ec 8e 56 bc 16 d1 9b 3b dd 55 69 3d 9c 1a ad bc
       -0.013095599 0.0047551496 0.05696665 -0.021130852

bias f4 [32]
000000 b9 03 d0 3c 35 d9 de bc 1a 95 7d bd fc 9c 3d bd
       0.0253924 -0.027203182 -0.061909772 -0.04629229
000010 95 1d 28 b9 19 23 0b bd 82 20 31 3d 26 3a 02 3c
       -0.00016032749 -0.03396902 0.043243892 0.007948434
000020 1f 76 0a bc 91 aa e1 3c bf 7b 28 bd 9c f5 01 3d
       -0.008451014 0.027547153 -0.04113364 0.031728372
000030 bd 66 7a 3c d5 d3 3c 3d a6 2e c4 bc 75 e6 d3 3c
       0.015283284 0.046100456 -0.023948025 0.025866726
000040 79 6c 5a 3b 45 47 a9 bc 1b ad 13 bd 65 68 47 bd
       0.0033328815 -0.020663867 -0.036053758 -0.048683543
000050 e1 9e 03 3c a7 1b 1b 3d d9 4a 6c bd b8 58 c5 bc
       0.008033485 0.03786817 -0.057688568 -0.024090156
000060 2b 8c 98 3c 66 e2 1e 3d 0e be 53 3b e8 33 1d 3d
       0.018621525 0.03879013 0.0032309326 0.03837958
000070 69 39 37 3d b4 9f 31 bd b3 04 d6 3c 6d 80 0d 3d
       0.044732485 -0.043365195 0.026125288 0.034546304

weight f4 [32]
000000 57 27 7d 3f d4 a1 80 3f 4d 14 88 3f 67 38 80 3f
       0.9888815 1.0049386 1.0631195 1.0017213
000010 5b 5f 85 3f 49 d5 89 3f ee 04 84 3f 67 31 82 3f
       1.0419725 1.0768214 1.0314004 1.0171326
000020 7a c7 8b 3f 90 88 83 3f d0 74 8c 3f e2 2e 98 3f
       1.092025 1.027605 1.0973148 1.1889307
000030 24 f7 93 3f 35 7e 83 3f f6 e6 85 3f 12 e4 8b 3f
       1.1559796 1.027289 1.0461109 1.0928977
000040 55 8b 8b 3f 09 47 86 3f e4 26 81 3f 72 a9 87 3f
       1.0901896 1.0490428 1.0089993 1.0598586
000050 07 59 82 3f 49 d1 84 3f 1a 23 8a 3f cb 8c 81 3f
       1.0183419 1.0376369 1.0791962 1.0121092
000060 df 1e 8d 3f e8 fc 8e 3f dc 6d 81 3f c9 a1 8c 3f
       1.1025046 1.1170931 1.0111651 1.0986873
000070 c3 07 85 3f 7e 18 88 3f 5e 7e 8a 3f 80 14 91 3f
       1.0392994 1.0632474 1.0819814 1.1334381

bias f4 [32]
000000 fe 21 8a 3d f4 1b 9f bc 9d d2 18 3e 2a 29 8b 3e
       0.06744765 -0.019422509 0.14924093 0.27179843
000010 d1 5d a9 3d d1 01 90 3d 63 c4 43 3d ca 6b 12 3e
       0.08269847 0.070315965 0.04779471 0.14298931
000020 58 17 ff 3d 32 9e ce 3d d5 f5 07 3e b4 6b 19 3e
       0.12455624 0.10088767 0.13277371 0.14982492
000030 be 89 1c 3e e6 5d bb 3c ec 08 ce 3d 6a 83 80 3d
       0.1528692 0.022871923 0.100602955 0.06275065
000040 54 4d 3c 3e b9 05 11 3e 2b 82 0e 3e 49 47 04 3e
       0.18388873 0.1416234 0.13916843 0.12917818
000050 69 60 89 bd 3e 08 5b 3c 5d e4 29 3e 7e b8 6c 3d
       -0.06707842 0.013368664 0.1659102 0.057793133
000060 96 71 90 3e b0 69 34 3d a0 15 f8 3c 28 1d a4 3d
       0.2821166 0.044046104 0.03028375 0.080133736
000070 f0 3f 77 3e 78 44 10 3e 2e 36 cd 3d 0d d0 84 3e
       0.24145484 0.14088619 0.100200996 0.2593998

running_mean f4 [32]
000000 a7 95 0f 3f 31 be a7 3f 2e d6 c8 3f 6b 6b 4f 40
       0.56087726 1.3104917 1.5690362 3.2409313
000010 f8 c6 00 40 81 b8 01 be c6 a8 7b 3f 7c 00 87 3e
       2.012144 -0.12668039 0.983044 0.26367557
000020 09 0c b4 3e 42 dc e2 3d 61 d9 20 3f c9 ca 14 3f
       0.35165432 0.11077167 0.62831694 0.58121926
000030 fe 6d ed be 33 c5 9e 3f 3c 92 7d 3f 2f 54 34 3f
       -0.4637298 1.240393 0.9905126 0.70440954
000040 d1 8c c0 3f dc 8f 31 3f 1a 81 2d 3f 3c 92 c2 3e
       1.5042974 0.69360137 0.6777512 0.38002193
000050 90 0d 9d 3e 35 30 4d 3f 4e 29 52 3f 59 08 3d 3f
       0.3067441 0.80151683 0.82094276 0.7384086
000060 97 50 ab 3f 7d 3c 4c 3f e6 a2 9e bb d9 d4 d1 3e
       1.3383969 0.797798 -0.0048411964 0.40982702
000070 df 57 1e 40 a7 39 6f 3f 61 f2 79 bd 47 e6 9b 3f
       2.4741132 0.93447345 -0.061022166 1.217965

running_var f4 [32]
000000 d7 ad d6 3f 5c 4a 90 3f 8e 09 f1 3f 07 b2 36 40
       1.6771802 1.1272693 1.8831041 2.854616
000010 29 14 dc 3f 68 f3 9d 3f 9c 74 7f 3f 67 26 b6 3f
       1.7193652 1.2339907 0.99787307 1.423047
000020 fc e8 59 3f 54 73 80 3f b9 b4 af 3f df d7 17 40
       0.8512113 1.0035195 1.3727027 2.3725507
000030 d0 12 df 3f 05 2b 91 3f 62 56 f8 3f 53 03 93 3f
       1.7427616 1.1341254 1.9401362 1.148539
000040 d7 9a ea 3f 89 b1 7d 3f 3a c8 af 3f 32 ee d7 3f
       1.8328503 0.9909902 1.3732979 1.6869566
000050 a4 23 4f 3f 2c f8 bb 3f 6c bc 00 40 f1 84 9d 3f
       0.8091376 1.4685111 2.0115004 1.2306195
000060 47 a3 c4 3f f7 41 c4 3f 87 80 35 3f d2 db 90 3f
       1.5362328 1.5332631 0.7089924 1.1317084
000070 01 94 fa 3f f6 c4 b2 3f 21 f6 b7 3f 38 d4 bc 3f
       1.9576417 1.3966358 1.4371988 1.4752264

weight f4 [32, 32, 3, 3]
000000 6f 55 31 bd e1 ac d5 3c 5d 3b 11 3d 33 5b 3c bd
       -0.043294366 0.026083412 0.035457004 -0.04598541
000010 eb 82 9c bd ef 7c 9f bd e4 20 89 bd e2 35 a3 bd
       -0.07642158 -0.07787501 -0.066957265 -0.07969262
000020 f2 12 1d bd 7f ba b4 3d 16 e5 4c bd 87 01 32 3b
       -0.038348146 0.08824634 -0.05002316 0.0027161555
000030 93 36 b9 bb ee fb 84 bd 21 26 0e bd 70 86 83 bd
       -0.0056522577 -0.06493364 -0.03470433 -0.06422126
000040 5d a0 a1 bd e2 cd 23 bd bc c9 64 bd 14 2d fe bc
       -0.07891915 -0.039991267 -0.05585645 -0.031027354
000050 13 7b 8f bd 95 ff b0 bd bd 69 7a bd 12 c1 23 3d
       -0.070058964 -0.086424984 -0.061135996 0.039979048
000060 7d 99 6f 3c 15 69 26 3d d0 c3 89 3d 79 88 94 3c
       0.014623997 0.040627558 0.067268014 0.018131481
000070 29 f8 0f 3c 05 4c 6f bd c0 d6 1c 3c 50 1d 8f 3b
       0.008787193 -0.058422107 0.009572685 0.004367508
000080 43 31 79 bc 0f 79 85 bd 3f 2e 10 bd 37 55 cd 3b
       -0.015209499 -0.06517231 -0.035200354 0.006266262
000090 0c 28 c0 3c 38 fb e7 bc 84 23 84 bd be 19 d5 3c
       0.023456596 -0.028318033 -0.064520866 0.026013251
0000a0 8c 8e 94 3c 71 7f 2e bc 16 4e cf 3c 29 d3 b4 3c
       0.018134378 -0.010650502 0.025305789 0.022073345
0000b0 0f 5c 0b bb 43 81 45 bd 4f 6d b0 3c 42 e2 83 3d
       -0.0021264588 -0.048218977 0.021536497 0.0643964
0000c0 aa 3b 8a bd e8 9b 2d bd a2 2b d1 bc 49 33 b2 bc
       -0.06749661 -0.042385012 -0.025533501 -0.02175297
0000d0 ea b2 b0 3c 15 38 90 3a 9b 6a 65 3d ea b2 42 bd
       0.021569688 0.0011003042 0.05600987 -0.047533907
0000e0 e4 da 85 bd b6 6f 79 bd b9 13 81 3a 14 b6 81 3d
       -0.06535891 -0.06089755 0.0009847797 0.06333557
0000f0 13 63 5a bd 32 a9 98 bd 5c f8 9a 3c 08 ca d7 3c
       -0.05331714 -0.074541464 0.018917255 0.026341453
000100 14 bd de 3b f6 78 38 bd 50 0d 4b bd 7d 85 99 bc
       0.006797442 -0.045037232 -0.049573243 -0.01874041
000110 d5 2b ac 3c 25 ad c0 bc 72 7b a4 3d a7 c7 c7 3d
       0.021016994 -0.023520062 0.08031358 0.097548775
000120 e7 63 1c 3d 63 59 d1 bd e3 b3 81 bd 33 23 0d 3d
       0.03818121 -0.10222127 -0.06333139 0.034457397
000130 50 30 ad b9 b4 09 f2 3b 3c 9f 01 3d fc 6f b4 bd
       -0.00033033127 0.0073864106 0.031646 -0.08810422
000140 4f 91 30 bb 6e 22 da 3c 87 69 b9 3c 7c 77 07 3c
       -0.002694208 0.026627745 0.022633327 0.008268233
000150 53 0f 3e 3c e2 c7 0f bd 2e 5b 07 bd 65 8a 92 3b
       0.011600333 -0.035102732 -0.03304594 0.0044720643
000160 53 07 d1 bb ad b3 ad 3c 77 e7 2d bc bb 7b 2f bc
       -0.006379047 0.02120384 -0.010614268 -0.010710652
000170 a8 5e 4e 3d 1f 85 b3 bd ed 71 96 bd 8b 97 ae bb
       0.05038324 -0.08765625 -0.07345948 -0.005328124
000180 5b 0a 88 3c d5 62 db 3c 18 ca c8 bd 25 28 a0 3d
       0.0166065 0.026780525 -0.09804171 0.07820157
000190 bd 23 82 3c 4a 49 8b bc f1 09 96 bc 84 15 53 3c
       0.015886182 -0.01700272 -0.018315287 0.012883548
0001a0 5c dc a7 bd a1 75 5b 3c 20 b4 81 3d 69 c5 2e 3d
       -0.08196327 0.013394744 0.06333184 0.042668734
0001b0 73 2d 85 3d d8 3a fd bc 18 ee 93 bc 0e 7c 67 3d
       0.065028094 -0.030911848 -0.018057868 0.056514792
0001c0 92 1b 04 bd 7e 0e 86 bd 9f 54 b4 3c fc 9d 29 3d
       -0.032252856 -0.06545733 0.022013007 0.04141043
0001d0 f9 e6 4e 3d 6f 37 d9 3c 7d 77 08 3d df 6d 92 3c
       0.05051324 0.02651569 0.033317078 0.017874656
0001e0 bb be fc 3c 62 0c 94 3d 61 27 53 3d 6d 11 0f bc
       0.030852666 0.07228924 0.051551227 -0.008732182
0001f0 61 7e 63 bd 7c ac 2a bd 37 c9 77 3d 09 0d 0a bc
       -0.055540446 -0.0416684 0.060494628 -0.008425959
000200 90 d9 18 3d f8 67 f7 bc da d4 4f bd 08 e1 87 3c
       0.03731686 -0.030200943 -0.0507401 0.016586795
000210 63 d6 05 be 62 fd 73 bd 43 17 79 3d 9e 50 00 3d
       -0.13070063 -0.059567817 0.0608132 0.031326883
000220 75 5e a5 3c 5a 33 7f bd 55 f9 e8 bb aa 4d 5b bd
       0.020186642 -0.062304832 -0.007109801 -0.053540863
000230 49 2c 19 bd 7c 8b 5c 3d 18 ff 72 bc 53 56 a1 3d
       -0.03739575 0.05384396 -0.014831327 0.07877793
000240 0a e7 5f bc 6c f3 8a 3c eb b5 04 3e cd 36 f4 3d
       -0.013665924 0.016961776 0.12960021 0.11924515
000250 f2 7b bc 3b 83 3f b6 3c 88 3d 26 ba f3 cb 7d bd
       0.00575208 0.022247082 -0.00063415663 -0.06196208
000260 e3 0f dd bc c0 cc 1e 3d b7 ce 90 3c ed 89 b2 bc
       -0.026985114 0.038769484 0.017676694 -0.021794284
000270 42 3f 0d 3d 34 04 48 bc 9f a8 54 bc 88 7a 27 bd
       0.034484155 -0.012208033 -0.0129796555 -0.04088834
000280 20 1d 63 3d 91 6b 53 3c f6 3d 80 3c 59 1b 33 bd
       0.055447698 0.012904064 0.015654545 -0.043727253
000290 4d 31 d4 bd 81 1d cc 3d 4a 90 93 bc 64 81 01 bd
       -0.10360966 0.09966565 -0.018013138 -0.031617537
0002a0 fb 7c 66 bd 23 57 23 3d 33 9a a3 3c 92 38 3b 3d
       -0.056271534 0.039878022 0.019970989 0.045708247
0002b0 f0 73 a0 3d df 50 2e 3d 23 b7 37 3d ce 65 0b 3b
       0.07834613 0.042557593 0.044852387 0.0021270397
0002c0 e4 bc c2 bd c5 aa b3 bb 7d 74 14 bc 06 f7 5d bc
       -0.09508684 -0.005483004 -0.009060976 -0.0135476645
0002d0 98 53 13 3d 81 f7 9a 3c 48 0e 1f 3d d7 3f 0c bd
       0.035968393 0.018916847 0.03883198 -0.03424057
0002e0 cd 11 7c bd 0e a1 2e bd ac ec 4c bc f0 28 c0 bc
       -0.061540414 -0.042634062 -0.012507599 -0.02345702
0002f0 55 78 de bd df fe 05 3d 73 d0 07 3d 31 97 be 3d
       -0.10862795 0.032713767 0.033157777 0.09306181
000300 de 40 7d bd 1c eb e1 bc c1 04 29 3d ae 26 f9 3c
       -0.06182944 -0.02757793 0.0412643 0.030413952
000310 22 00 27 bc 99 47 3e bb 63 24 c0 3c 7a 13 fa bc
       -0.010192903 -0.0029034375 0.02345485 -0.030526865
000320 a3 0d 4d 3d f1 a8 93 bd 93 ce 81 bd 27 28 ef 3b
       0.050061833 -0.072099574 -0.06338229 0.0072984877
000330 b2 89 22 bd 2a 10 0e bd 3e 90 be 3d 86 8f 0e 3b
       -0.039682098 -0.034683384 0.09304856 0.0021753027
000340 6c dc fe bc 9c 17 0f bc 12 cc c1 3d 22 1c 1e bd
       -0.031110965 -0.008733656 0.094627514 -0.03860105
000350 42 54 32 bd f0 65 9c 3c 7f b1 99 bc 70 51 f9 bb
       -0.043537386 0.019091576 -0.018761395 -0.007608585
000360 1b 50 d9 bc 66 f8 4d bd ac fd d3 bc ee 1d 93 bd
       -0.026527455 -0.05028572 -0.025877796 -0.07183443
000370 e3 b1 5f bd 27 fa 26 bd 91 b5 dc 3d 46 c3 41 3d
       -0.054613005 -0.040765908 0.107768185 0.047305368
000380 fb b1 d1 3d 02 dc 28 3c 83 19 bc 3c a7 56 e2 3c
       0.10239025 0.01030636 0.022961384 0.02762921
000390 3b c7 f5 bc 54 73 3f bd 6b 3d 17 3c 7e 97 5f 3c
       -0.030002227 -0.046740845 0.009230952 0.013646958
0003a0 e0 de 60 bc 08 1d 5e bc ca 60 a6 bc 87 9d 1a bd
       -0.013725013 -0.013556726 -0.020309824 -0.037747886
0003b0 49 4c 64 bd 22 cc 91 3d 11 bd d1 3c 7e b2 ca 3b
       -0.055736814 0.07119013 0.02560285 0.0061858287
0003c0 90 d7 bd bc 7b ca 30 3b ff 04 9c bd 96 1b 54 3d
       -0.023174077 0.0026976157 -0.076181404 0.05178412
0003d0 97 dd 5c 3d 38 a3 6d bc 99 3e 82 3d 52 5e 9e 3d
       0.053922262 -0.014504246 0.06359596 0.07732834
0003e0 f7 1f 9c bc 06 b0 c6 bb 52 2f 75 3b 19 ea 1a be
       -0.01905821 -0.006063464 0.0037412238 -0.15128364
0003f0 aa 81 21 3d e4 c7 68 3c 1a ae e2 3c ad 50 c7 3d
       0.039430298 0.014207814 0.027670909 0.097321846

bias f4 [32]
000000 c5 cb 03 bd 63 07 b9 bc 0f f3 2a bd 6f 43 eb bc
       -0.03217675 -0.02258653 -0.041735705 -0.028718678
000010 78 79 50 bd a5 df 5b 3c 95 f7 fb bc c5 d8 94 bb
       -0.05089709 0.01342002 -0.030757705 -0.0045424425
000020 55 6f 75 bd 58 fd b5 3b 54 e0 17 3c 9b 9c a1 bc
       -0.059920628 0.0055538826 0.009269793 -0.019727996
000030 4b c8 10 bd bb d4 03 bd 95 b3 33 3d 54 18 fe bc
       -0.035347264 -0.032185297 0.043872435 -0.03101746
000040 1b f9 16 bc 39 b6 9d bc ba 25 0c 3d 4a a9 12 bd
       -0.009214665 -0.01925193 0.034215666 -0.035805978
000050 9f 77 2a bd 6a d0 03 bd ff be 46 bd 51 57 cd bc
       -0.041617986 -0.03218118 -0.04852199 -0.02506605
000060 50 31 d5 3c ea a8 2a bd 95 27 b2 bc 2e e4 cc 3a
       0.02602449 -0.041664995 -0.02174739 0.0015631968
000070 69 6e af bc f9 c9 75 3d b0 27 3e bd 82 ed c4 bc
       -0.021414952 0.06000707 -0.046424568 -0.024039034
